EDSR(
  (sub_mean): MeanShift(3, 3, kernel_size=(1, 1), stride=(1, 1))
  (add_mean): MeanShift(3, 3, kernel_size=(1, 1), stride=(1, 1))
  (head): Sequential(
    (0): Conv2d(3, 64, kernel_size=(3, 3), stride=(1, 1), padding=(1, 1))
  )
  (body): Sequential(
    (0): ResBlock(
      (body): Sequential(
        (0): Conv2d(64, 64, kernel_size=(3, 3), stride=(1, 1), padding=(1, 1))
        (1): ReLU(inplace=True)
        (2): Conv2d(64, 64, kernel_size=(3, 3), stride=(1, 1), padding=(1, 1))
      )
    )
    (1): ResBlock(
      (body): Sequential(
        (0): Conv2d(64, 64, kernel_size=(3, 3), stride=(1, 1), padding=(1, 1))
        (1): ReLU(inplace=True)
        (2): Conv2d(64, 64, kernel_size=(3, 3), stride=(1, 1), padding=(1, 1))
      )
    )
    (2): ResBlock(
      (body): Sequential(
        (0): Conv2d(64, 64, kernel_size=(3, 3), stride=(1, 1), padding=(1, 1))
        (1): ReLU(inplace=True)
        (2): Conv2d(64, 64, kernel_size=(3, 3), stride=(1, 1), padding=(1, 1))
      )
    )
    (3): ResBlock(
      (body): Sequential(
        (0): Conv2d(64, 64, kernel_size=(3, 3), stride=(1, 1), padding=(1, 1))
        (1): ReLU(inplace=True)
        (2): Conv2d(64, 64, kernel_size=(3, 3), stride=(1, 1), padding=(1, 1))
      )
    )
    (4): ResBlock(
      (body): Sequential(
        (0): Conv2d(64, 64, kernel_size=(3, 3), stride=(1, 1), padding=(1, 1))
        (1): ReLU(inplace=True)
        (2): Conv2d(64, 64, kernel_size=(3, 3), stride=(1, 1), padding=(1, 1))
      )
    )
    (5): ResBlock(
      (body): Sequential(
        (0): Conv2d(64, 64, kernel_size=(3, 3), stride=(1, 1), padding=(1, 1))
        (1): ReLU(inplace=True)
        (2): Conv2d(64, 64, kernel_size=(3, 3), stride=(1, 1), padding=(1, 1))
      )
    )
    (6): ResBlock(
      (body): Sequential(
        (0): Conv2d(64, 64, kernel_size=(3, 3), stride=(1, 1), padding=(1, 1))
        (1): ReLU(inplace=True)
        (2): Conv2d(64, 64, kernel_size=(3, 3), stride=(1, 1), padding=(1, 1))
      )
    )
    (7): ResBlock(
      (body): Sequential(
        (0): Conv2d(64, 64, kernel_size=(3, 3), stride=(1, 1), padding=(1, 1))
        (1): ReLU(inplace=True)
        (2): Conv2d(64, 64, kernel_size=(3, 3), stride=(1, 1), padding=(1, 1))
      )
    )
    (8): ResBlock(
      (body): Sequential(
        (0): Conv2d(64, 64, kernel_size=(3, 3), stride=(1, 1), padding=(1, 1))
        (1): ReLU(inplace=True)
        (2): Conv2d(64, 64, kernel_size=(3, 3), stride=(1, 1), padding=(1, 1))
      )
    )
    (9): ResBlock(
      (body): Sequential(
        (0): Conv2d(64, 64, kernel_size=(3, 3), stride=(1, 1), padding=(1, 1))
        (1): ReLU(inplace=True)
        (2): Conv2d(64, 64, kernel_size=(3, 3), stride=(1, 1), padding=(1, 1))
      )
    )
    (10): ResBlock(
      (body): Sequential(
        (0): Conv2d(64, 64, kernel_size=(3, 3), stride=(1, 1), padding=(1, 1))
        (1): ReLU(inplace=True)
        (2): Conv2d(64, 64, kernel_size=(3, 3), stride=(1, 1), padding=(1, 1))
      )
    )
    (11): ResBlock(
      (body): Sequential(
        (0): Conv2d(64, 64, kernel_size=(3, 3), stride=(1, 1), padding=(1, 1))
        (1): ReLU(inplace=True)
        (2): Conv2d(64, 64, kernel_size=(3, 3), stride=(1, 1), padding=(1, 1))
      )
    )
    (12): ResBlock(
      (body): Sequential(
        (0): Conv2d(64, 64, kernel_size=(3, 3), stride=(1, 1), padding=(1, 1))
        (1): ReLU(inplace=True)
        (2): Conv2d(64, 64, kernel_size=(3, 3), stride=(1, 1), padding=(1, 1))
      )
    )
    (13): ResBlock(
      (body): Sequential(
        (0): Conv2d(64, 64, kernel_size=(3, 3), stride=(1, 1), padding=(1, 1))
        (1): ReLU(inplace=True)
        (2): Conv2d(64, 64, kernel_size=(3, 3), stride=(1, 1), padding=(1, 1))
      )
    )
    (14): ResBlock(
      (body): Sequential(
        (0): Conv2d(64, 64, kernel_size=(3, 3), stride=(1, 1), padding=(1, 1))
        (1): ReLU(inplace=True)
        (2): Conv2d(64, 64, kernel_size=(3, 3), stride=(1, 1), padding=(1, 1))
      )
    )
    (15): ResBlock(
      (body): Sequential(
        (0): Conv2d(64, 64, kernel_size=(3, 3), stride=(1, 1), padding=(1, 1))
        (1): ReLU(inplace=True)
        (2): Conv2d(64, 64, kernel_size=(3, 3), stride=(1, 1), padding=(1, 1))
      )
    )
    (16): Conv2d(64, 64, kernel_size=(3, 3), stride=(1, 1), padding=(1, 1))
  )
  (tail): Sequential(
    (0): Upsampler(
      (0): Conv2d(64, 256, kernel_size=(3, 3), stride=(1, 1), padding=(1, 1))
      (1): PixelShuffle(upscale_factor=2)
      (2): Conv2d(64, 256, kernel_size=(3, 3), stride=(1, 1), padding=(1, 1))
      (3): PixelShuffle(upscale_factor=2)
    )
    (1): Conv2d(64, 3, kernel_size=(3, 3), stride=(1, 1), padding=(1, 1))
  )
)
[Epoch 1]	Learning rate: 1.00e-4
[1600/16000]	[L1: 18.6739]	9.2+13.9s
[3200/16000]	[L1: 14.7679]	4.0+3.3s
[4800/16000]	[L1: 13.1174]	3.7+3.4s
[6400/16000]	[L1: 12.0748]	3.8+3.3s
[8000/16000]	[L1: 11.4435]	3.8+3.4s
[9600/16000]	[L1: 10.9353]	4.4+3.7s
[11200/16000]	[L1: 10.5661]	4.0+3.5s
[12800/16000]	[L1: 10.2960]	3.8+3.7s
[14400/16000]	[L1: 10.0383]	4.3+3.9s
…
[Epoch 4]	Learning rate: 1.00e-4
[1600/16000]	[L1: 7.3097]	3.9+12.8s
[3200/16000]	[L1: 7.1984]	3.7+3.3s
[4800/16000]	[L1: 7.2525]	3.8+3.3s
[6400/16000]	[L1: 7.3237]	3.8+3.2s
[8000/16000]	[L1: 7.3091]	3.7+3.3s
[9600/16000]	[L1: 7.3529]	3.7+3.3s
[11200/16000]	[L1: 7.4100]	3.8+3.3s
[12800/16000]	[L1: 7.3721]	3.8+3.2s
[14400/16000]	[L1: 7.3569]	3.8+3.5s
[16000/16000]	[L1: 7.3482]	3.7+3.4s

Evaluation:
[DIV2K x4]	PSNR: nan (Best: nan @epoch 1)
Forward: 2.20s

Saving...
Total: 2.43s

[Epoch 5]	Learning rate: 1.00e-4
[1600/16000]	[L1: 7.5166]	4.0+12.7s
[3200/16000]	[L1: 7.3586]	3.8+3.4s
RFDN(
  (fea_conv): Conv2d(3, 50, kernel_size=(3, 3), stride=(1, 1), padding=(1, 1))
  (B1): RFDB(
    (c1_d): Conv2d(50, 25, kernel_size=(1, 1), stride=(1, 1))
    (c1_r): Conv2d(50, 50, kernel_size=(3, 3), stride=(1, 1), padding=(1, 1))
    (c2_d): Conv2d(50, 25, kernel_size=(1, 1), stride=(1, 1))
    (c2_r): Conv2d(50, 50, kernel_size=(3, 3), stride=(1, 1), padding=(1, 1))
    (c3_d): Conv2d(50, 25, kernel_size=(1, 1), stride=(1, 1))
    (c3_r): Conv2d(50, 50, kernel_size=(3, 3), stride=(1, 1), padding=(1, 1))
    (c4): Conv2d(50, 25, kernel_size=(3, 3), stride=(1, 1), padding=(1, 1))
    (act): LeakyReLU(negative_slope=0.05, inplace=True)
    (c5): Conv2d(100, 50, kernel_size=(1, 1), stride=(1, 1))
    (esa): ESA(
      (conv1): Conv2d(50, 12, kernel_size=(1, 1), stride=(1, 1))
      (conv_f): Conv2d(12, 12, kernel_size=(1, 1), stride=(1, 1))
      (conv_max): Conv2d(12, 12, kernel_size=(3, 3), stride=(1, 1), padding=(1, 1))
      (conv2): Conv2d(12, 12, kernel_size=(3, 3), stride=(2, 2))
      (conv3): Conv2d(12, 12, kernel_size=(3, 3), stride=(1, 1), padding=(1, 1))
      (conv3_): Conv2d(12, 12, kernel_size=(3, 3), stride=(1, 1), padding=(1, 1))
      (conv4): Conv2d(12, 50, kernel_size=(1, 1), stride=(1, 1))
      (sigmoid): Sigmoid()
      (relu): ReLU(inplace=True)
    )
  )
  (B2): RFDB(
    (c1_d): Conv2d(50, 25, kernel_size=(1, 1), stride=(1, 1))
    (c1_r): Conv2d(50, 50, kernel_size=(3, 3), stride=(1, 1), padding=(1, 1))
    (c2_d): Conv2d(50, 25, kernel_size=(1, 1), stride=(1, 1))
    (c2_r): Conv2d(50, 50, kernel_size=(3, 3), stride=(1, 1), padding=(1, 1))
    (c3_d): Conv2d(50, 25, kernel_size=(1, 1), stride=(1, 1))
    (c3_r): Conv2d(50, 50, kernel_size=(3, 3), stride=(1, 1), padding=(1, 1))
    (c4): Conv2d(50, 25, kernel_size=(3, 3), stride=(1, 1), padding=(1, 1))
    (act): LeakyReLU(negative_slope=0.05, inplace=True)
    (c5): Conv2d(100, 50, kernel_size=(1, 1), stride=(1, 1))
    (esa): ESA(
      (conv1): Conv2d(50, 12, kernel_size=(1, 1), stride=(1, 1))
      (conv_f): Conv2d(12, 12, kernel_size=(1, 1), stride=(1, 1))
      (conv_max): Conv2d(12, 12, kernel_size=(3, 3), stride=(1, 1), padding=(1, 1))
      (conv2): Conv2d(12, 12, kernel_size=(3, 3), stride=(2, 2))
      (conv3): Conv2d(12, 12, kernel_size=(3, 3), stride=(1, 1), padding=(1, 1))
      (conv3_): Conv2d(12, 12, kernel_size=(3, 3), stride=(1, 1), padding=(1, 1))
      (conv4): Conv2d(12, 50, kernel_size=(1, 1), stride=(1, 1))
      (sigmoid): Sigmoid()
      (relu): ReLU(inplace=True)
    )
  )
  (B3): RFDB(
    (c1_d): Conv2d(50, 25, kernel_size=(1, 1), stride=(1, 1))
    (c1_r): Conv2d(50, 50, kernel_size=(3, 3), stride=(1, 1), padding=(1, 1))
    (c2_d): Conv2d(50, 25, kernel_size=(1, 1), stride=(1, 1))
    (c2_r): Conv2d(50, 50, kernel_size=(3, 3), stride=(1, 1), padding=(1, 1))
    (c3_d): Conv2d(50, 25, kernel_size=(1, 1), stride=(1, 1))
    (c3_r): Conv2d(50, 50, kernel_size=(3, 3), stride=(1, 1), padding=(1, 1))
    (c4): Conv2d(50, 25, kernel_size=(3, 3), stride=(1, 1), padding=(1, 1))
    (act): LeakyReLU(negative_slope=0.05, inplace=True)
    (c5): Conv2d(100, 50, kernel_size=(1, 1), stride=(1, 1))
    (esa): ESA(
      (conv1): Conv2d(50, 12, kernel_size=(1, 1), stride=(1, 1))
      (conv_f): Conv2d(12, 12, kernel_size=(1, 1), stride=(1, 1))
      (conv_max): Conv2d(12, 12, kernel_size=(3, 3), stride=(1, 1), padding=(1, 1))
      (conv2): Conv2d(12, 12, kernel_size=(3, 3), stride=(2, 2))
      (conv3): Conv2d(12, 12, kernel_size=(3, 3), stride=(1, 1), padding=(1, 1))
      (conv3_): Conv2d(12, 12, kernel_size=(3, 3), stride=(1, 1), padding=(1, 1))
      (conv4): Conv2d(12, 50, kernel_size=(1, 1), stride=(1, 1))
      (sigmoid): Sigmoid()
      (relu): ReLU(inplace=True)
    )
  )
  (B4): RFDB(
    (c1_d): Conv2d(50, 25, kernel_size=(1, 1), stride=(1, 1))
    (c1_r): Conv2d(50, 50, kernel_size=(3, 3), stride=(1, 1), padding=(1, 1))
    (c2_d): Conv2d(50, 25, kernel_size=(1, 1), stride=(1, 1))
    (c2_r): Conv2d(50, 50, kernel_size=(3, 3), stride=(1, 1), padding=(1, 1))
    (c3_d): Conv2d(50, 25, kernel_size=(1, 1), stride=(1, 1))
    (c3_r): Conv2d(50, 50, kernel_size=(3, 3), stride=(1, 1), padding=(1, 1))
    (c4): Conv2d(50, 25, kernel_size=(3, 3), stride=(1, 1), padding=(1, 1))
    (act): LeakyReLU(negative_slope=0.05, inplace=True)
    (c5): Conv2d(100, 50, kernel_size=(1, 1), stride=(1, 1))
    (esa): ESA(
      (conv1): Conv2d(50, 12, kernel_size=(1, 1), stride=(1, 1))
      (conv_f): Conv2d(12, 12, kernel_size=(1, 1), stride=(1, 1))
      (conv_max): Conv2d(12, 12, kernel_size=(3, 3), stride=(1, 1), padding=(1, 1))
      (conv2): Conv2d(12, 12, kernel_size=(3, 3), stride=(2, 2))
      (conv3): Conv2d(12, 12, kernel_size=(3, 3), stride=(1, 1), padding=(1, 1))
      (conv3_): Conv2d(12, 12, kernel_size=(3, 3), stride=(1, 1), padding=(1, 1))
      (conv4): Conv2d(12, 50, kernel_size=(1, 1), stride=(1, 1))
      (sigmoid): Sigmoid()
      (relu): ReLU(inplace=True)
    )
  )
  (c): Sequential(
    (0): Conv2d(200, 50, kernel_size=(1, 1), stride=(1, 1))
    (1): LeakyReLU(negative_slope=0.05, inplace=True)
  )
  (LR_conv): Conv2d(50, 50, kernel_size=(3, 3), stride=(1, 1), padding=(1, 1))
  (upsampler): Sequential(
    (0): Conv2d(50, 48, kernel_size=(3, 3), stride=(1, 1), padding=(1, 1))
    (1): PixelShuffle(upscale_factor=4)
  )
)
[Epoch 1]	Learning rate: 1.00e-4
[1600/16000]	[L1: 42.3724]	10.0+10.0s
[3200/16000]	[L1: 30.5798]	4.1+0.4s
[4800/16000]	[L1: 25.5373]	3.7+0.4s
[6400/16000]	[L1: 22.4607]	4.1+0.3s
[8000/16000]	[L1: 20.2340]	3.8+0.4s
[9600/16000]	[L1: 18.6818]	3.9+0.4s
[11200/16000]	[L1: 17.4298]	4.5+0.4s
[12800/16000]	[L1: 16.4704]	4.0+0.4s
[14400/16000]	[L1: 15.7154]	3.6+0.4s
[16000/16000]	[L1: 15.0417]	3.7+0.4s

Evaluation:
[DIV2K x4]	PSNR: nan (Best: nan @epoch 1)
Forward: 2.80s

Saving...
Total: 3.24s

[Epoch 2]	Learning rate: 1.00e-4
[1600/16000]	[L1: 8.9036]	4.2+10.1s
RFDN(
  (fea_conv): Conv2d(3, 50, kernel_size=(3, 3), stride=(1, 1), padding=(1, 1))
  (B1): RFDB(
    (c1_d): Conv2d(50, 25, kernel_size=(1, 1), stride=(1, 1))
    (c1_r): Conv2d(50, 50, kernel_size=(3, 3), stride=(1, 1), padding=(1, 1))
    (c2_d): Conv2d(50, 25, kernel_size=(1, 1), stride=(1, 1))
    (c2_r): Conv2d(50, 50, kernel_size=(3, 3), stride=(1, 1), padding=(1, 1))
    (c3_d): Conv2d(50, 25, kernel_size=(1, 1), stride=(1, 1))
    (c3_r): Conv2d(50, 50, kernel_size=(3, 3), stride=(1, 1), padding=(1, 1))
    (c4): Conv2d(50, 25, kernel_size=(3, 3), stride=(1, 1), padding=(1, 1))
    (act): LeakyReLU(negative_slope=0.05, inplace=True)
    (c5): Conv2d(100, 50, kernel_size=(1, 1), stride=(1, 1))
    (esa): ESA(
      (conv1): Conv2d(50, 12, kernel_size=(1, 1), stride=(1, 1))
      (conv_f): Conv2d(12, 12, kernel_size=(1, 1), stride=(1, 1))
      (conv_max): Conv2d(12, 12, kernel_size=(3, 3), stride=(1, 1), padding=(1, 1))
      (conv2): Conv2d(12, 12, kernel_size=(3, 3), stride=(2, 2))
      (conv3): Conv2d(12, 12, kernel_size=(3, 3), stride=(1, 1), padding=(1, 1))
      (conv3_): Conv2d(12, 12, kernel_size=(3, 3), stride=(1, 1), padding=(1, 1))
      (conv4): Conv2d(12, 50, kernel_size=(1, 1), stride=(1, 1))
      (sigmoid): Sigmoid()
      (relu): ReLU(inplace=True)
    )
  )
  (B2): RFDB(
    (c1_d): Conv2d(50, 25, kernel_size=(1, 1), stride=(1, 1))
    (c1_r): Conv2d(50, 50, kernel_size=(3, 3), stride=(1, 1), padding=(1, 1))
    (c2_d): Conv2d(50, 25, kernel_size=(1, 1), stride=(1, 1))
    (c2_r): Conv2d(50, 50, kernel_size=(3, 3), stride=(1, 1), padding=(1, 1))
    (c3_d): Conv2d(50, 25, kernel_size=(1, 1), stride=(1, 1))
    (c3_r): Conv2d(50, 50, kernel_size=(3, 3), stride=(1, 1), padding=(1, 1))
    (c4): Conv2d(50, 25, kernel_size=(3, 3), stride=(1, 1), padding=(1, 1))
    (act): LeakyReLU(negative_slope=0.05, inplace=True)
    (c5): Conv2d(100, 50, kernel_size=(1, 1), stride=(1, 1))
    (esa): ESA(
      (conv1): Conv2d(50, 12, kernel_size=(1, 1), stride=(1, 1))
      (conv_f): Conv2d(12, 12, kernel_size=(1, 1), stride=(1, 1))
      (conv_max): Conv2d(12, 12, kernel_size=(3, 3), stride=(1, 1), padding=(1, 1))
      (conv2): Conv2d(12, 12, kernel_size=(3, 3), stride=(2, 2))
      (conv3): Conv2d(12, 12, kernel_size=(3, 3), stride=(1, 1), padding=(1, 1))
      (conv3_): Conv2d(12, 12, kernel_size=(3, 3), stride=(1, 1), padding=(1, 1))
      (conv4): Conv2d(12, 50, kernel_size=(1, 1), stride=(1, 1))
      (sigmoid): Sigmoid()
      (relu): ReLU(inplace=True)
    )
  )
  (B3): RFDB(
    (c1_d): Conv2d(50, 25, kernel_size=(1, 1), stride=(1, 1))
    (c1_r): Conv2d(50, 50, kernel_size=(3, 3), stride=(1, 1), padding=(1, 1))
    (c2_d): Conv2d(50, 25, kernel_size=(1, 1), stride=(1, 1))
    (c2_r): Conv2d(50, 50, kernel_size=(3, 3), stride=(1, 1), padding=(1, 1))
    (c3_d): Conv2d(50, 25, kernel_size=(1, 1), stride=(1, 1))
    (c3_r): Conv2d(50, 50, kernel_size=(3, 3), stride=(1, 1), padding=(1, 1))
    (c4): Conv2d(50, 25, kernel_size=(3, 3), stride=(1, 1), padding=(1, 1))
    (act): LeakyReLU(negative_slope=0.05, inplace=True)
    (c5): Conv2d(100, 50, kernel_size=(1, 1), stride=(1, 1))
    (esa): ESA(
      (conv1): Conv2d(50, 12, kernel_size=(1, 1), stride=(1, 1))
      (conv_f): Conv2d(12, 12, kernel_size=(1, 1), stride=(1, 1))
      (conv_max): Conv2d(12, 12, kernel_size=(3, 3), stride=(1, 1), padding=(1, 1))
      (conv2): Conv2d(12, 12, kernel_size=(3, 3), stride=(2, 2))
      (conv3): Conv2d(12, 12, kernel_size=(3, 3), stride=(1, 1), padding=(1, 1))
      (conv3_): Conv2d(12, 12, kernel_size=(3, 3), stride=(1, 1), padding=(1, 1))
      (conv4): Conv2d(12, 50, kernel_size=(1, 1), stride=(1, 1))
      (sigmoid): Sigmoid()
      (relu): ReLU(inplace=True)
    )
  )
  (B4): RFDB(
    (c1_d): Conv2d(50, 25, kernel_size=(1, 1), stride=(1, 1))
    (c1_r): Conv2d(50, 50, kernel_size=(3, 3), stride=(1, 1), padding=(1, 1))
    (c2_d): Conv2d(50, 25, kernel_size=(1, 1), stride=(1, 1))
    (c2_r): Conv2d(50, 50, kernel_size=(3, 3), stride=(1, 1), padding=(1, 1))
    (c3_d): Conv2d(50, 25, kernel_size=(1, 1), stride=(1, 1))
    (c3_r): Conv2d(50, 50, kernel_size=(3, 3), stride=(1, 1), padding=(1, 1))
    (c4): Conv2d(50, 25, kernel_size=(3, 3), stride=(1, 1), padding=(1, 1))
    (act): LeakyReLU(negative_slope=0.05, inplace=True)
    (c5): Conv2d(100, 50, kernel_size=(1, 1), stride=(1, 1))
    (esa): ESA(
      (conv1): Conv2d(50, 12, kernel_size=(1, 1), stride=(1, 1))
      (conv_f): Conv2d(12, 12, kernel_size=(1, 1), stride=(1, 1))
      (conv_max): Conv2d(12, 12, kernel_size=(3, 3), stride=(1, 1), padding=(1, 1))
      (conv2): Conv2d(12, 12, kernel_size=(3, 3), stride=(2, 2))
      (conv3): Conv2d(12, 12, kernel_size=(3, 3), stride=(1, 1), padding=(1, 1))
      (conv3_): Conv2d(12, 12, kernel_size=(3, 3), stride=(1, 1), padding=(1, 1))
      (conv4): Conv2d(12, 50, kernel_size=(1, 1), stride=(1, 1))
      (sigmoid): Sigmoid()
      (relu): ReLU(inplace=True)
    )
  )
  (c): Sequential(
    (0): Conv2d(200, 50, kernel_size=(1, 1), stride=(1, 1))
    (1): LeakyReLU(negative_slope=0.05, inplace=True)
  )
  (LR_conv): Conv2d(50, 50, kernel_size=(3, 3), stride=(1, 1), padding=(1, 1))
  (upsampler): Sequential(
    (0): Conv2d(50, 48, kernel_size=(3, 3), stride=(1, 1), padding=(1, 1))
    (1): PixelShuffle(upscale_factor=4)
  )
)
[Epoch 1]	Learning rate: 1.00e-4
[1600/16000]	[L1: 42.3724]	8.6+10.6s
[3200/16000]	[L1: 30.5798]	4.3+0.4s
[4800/16000]	[L1: 25.5413]	4.3+0.4s
[6400/16000]	[L1: 22.4734]	3.8+0.4s
[8000/16000]	[L1: 20.2358]	3.7+0.5s
[9600/16000]	[L1: 18.6840]	3.8+0.4s
[11200/16000]	[L1: 17.4378]	3.9+0.4s
[12800/16000]	[L1: 16.4775]	3.7+0.5s
…
[DIV2K x4]	PSNR: nan (Best: nan @epoch 1)
Forward: 2.18s

Saving...
Total: 2.43s

[Epoch 5]	Learning rate: 1.00e-4
[1600/16000]	[L1: 7.9691]	4.1+10.4s
[3200/16000]	[L1: 7.8352]	4.0+0.4s
[4800/16000]	[L1: 7.8028]	3.7+0.5s
[6400/16000]	[L1: 7.8231]	3.7+0.5s
[8000/16000]	[L1: 7.7811]	3.5+0.6s
[9600/16000]	[L1: 7.8028]	3.6+0.6s
[11200/16000]	[L1: 7.7928]	3.9+0.5s
[12800/16000]	[L1: 7.8327]	4.0+0.5s
[14400/16000]	[L1: 7.8410]	4.5+0.5s
[16000/16000]	[L1: 7.8260]	3.8+0.4s

Evaluation:
[DIV2K x4]	PSNR: nan (Best: nan @epoch 1)
Forward: 2.63s

Saving...
Total: 2.96s

[Epoch 6]	Learning rate: 1.00e-4
RFDN(
  (fea_conv): Conv2d(3, 50, kernel_size=(3, 3), stride=(1, 1), padding=(1, 1))
  (B1): RFDB(
    (c1_d): Conv2d(50, 25, kernel_size=(1, 1), stride=(1, 1))
    (c1_r): Conv2d(50, 50, kernel_size=(3, 3), stride=(1, 1), padding=(1, 1))
    (c2_d): Conv2d(50, 25, kernel_size=(1, 1), stride=(1, 1))
    (c2_r): Conv2d(50, 50, kernel_size=(3, 3), stride=(1, 1), padding=(1, 1))
    (c3_d): Conv2d(50, 25, kernel_size=(1, 1), stride=(1, 1))
    (c3_r): Conv2d(50, 50, kernel_size=(3, 3), stride=(1, 1), padding=(1, 1))
    (c4): Conv2d(50, 25, kernel_size=(3, 3), stride=(1, 1), padding=(1, 1))
    (act): LeakyReLU(negative_slope=0.05, inplace=True)
    (c5): Conv2d(100, 50, kernel_size=(1, 1), stride=(1, 1))
    (esa): ESA(
      (conv1): Conv2d(50, 12, kernel_size=(1, 1), stride=(1, 1))
      (conv_f): Conv2d(12, 12, kernel_size=(1, 1), stride=(1, 1))
      (conv_max): Conv2d(12, 12, kernel_size=(3, 3), stride=(1, 1), padding=(1, 1))
      (conv2): Conv2d(12, 12, kernel_size=(3, 3), stride=(2, 2))
      (conv3): Conv2d(12, 12, kernel_size=(3, 3), stride=(1, 1), padding=(1, 1))
      (conv3_): Conv2d(12, 12, kernel_size=(3, 3), stride=(1, 1), padding=(1, 1))
      (conv4): Conv2d(12, 50, kernel_size=(1, 1), stride=(1, 1))
      (sigmoid): Sigmoid()
      (relu): ReLU(inplace=True)
    )
  )
  (B2): RFDB(
    (c1_d): Conv2d(50, 25, kernel_size=(1, 1), stride=(1, 1))
    (c1_r): Conv2d(50, 50, kernel_size=(3, 3), stride=(1, 1), padding=(1, 1))
    (c2_d): Conv2d(50, 25, kernel_size=(1, 1), stride=(1, 1))
    (c2_r): Conv2d(50, 50, kernel_size=(3, 3), stride=(1, 1), padding=(1, 1))
    (c3_d): Conv2d(50, 25, kernel_size=(1, 1), stride=(1, 1))
    (c3_r): Conv2d(50, 50, kernel_size=(3, 3), stride=(1, 1), padding=(1, 1))
    (c4): Conv2d(50, 25, kernel_size=(3, 3), stride=(1, 1), padding=(1, 1))
    (act): LeakyReLU(negative_slope=0.05, inplace=True)
    (c5): Conv2d(100, 50, kernel_size=(1, 1), stride=(1, 1))
    (esa): ESA(
      (conv1): Conv2d(50, 12, kernel_size=(1, 1), stride=(1, 1))
      (conv_f): Conv2d(12, 12, kernel_size=(1, 1), stride=(1, 1))
      (conv_max): Conv2d(12, 12, kernel_size=(3, 3), stride=(1, 1), padding=(1, 1))
      (conv2): Conv2d(12, 12, kernel_size=(3, 3), stride=(2, 2))
      (conv3): Conv2d(12, 12, kernel_size=(3, 3), stride=(1, 1), padding=(1, 1))
      (conv3_): Conv2d(12, 12, kernel_size=(3, 3), stride=(1, 1), padding=(1, 1))
      (conv4): Conv2d(12, 50, kernel_size=(1, 1), stride=(1, 1))
      (sigmoid): Sigmoid()
      (relu): ReLU(inplace=True)
    )
  )
  (B3): RFDB(
    (c1_d): Conv2d(50, 25, kernel_size=(1, 1), stride=(1, 1))
    (c1_r): Conv2d(50, 50, kernel_size=(3, 3), stride=(1, 1), padding=(1, 1))
    (c2_d): Conv2d(50, 25, kernel_size=(1, 1), stride=(1, 1))
    (c2_r): Conv2d(50, 50, kernel_size=(3, 3), stride=(1, 1), padding=(1, 1))
    (c3_d): Conv2d(50, 25, kernel_size=(1, 1), stride=(1, 1))
    (c3_r): Conv2d(50, 50, kernel_size=(3, 3), stride=(1, 1), padding=(1, 1))
    (c4): Conv2d(50, 25, kernel_size=(3, 3), stride=(1, 1), padding=(1, 1))
    (act): LeakyReLU(negative_slope=0.05, inplace=True)
    (c5): Conv2d(100, 50, kernel_size=(1, 1), stride=(1, 1))
    (esa): ESA(
      (conv1): Conv2d(50, 12, kernel_size=(1, 1), stride=(1, 1))
      (conv_f): Conv2d(12, 12, kernel_size=(1, 1), stride=(1, 1))
      (conv_max): Conv2d(12, 12, kernel_size=(3, 3), stride=(1, 1), padding=(1, 1))
      (conv2): Conv2d(12, 12, kernel_size=(3, 3), stride=(2, 2))
      (conv3): Conv2d(12, 12, kernel_size=(3, 3), stride=(1, 1), padding=(1, 1))
      (conv3_): Conv2d(12, 12, kernel_size=(3, 3), stride=(1, 1), padding=(1, 1))
      (conv4): Conv2d(12, 50, kernel_size=(1, 1), stride=(1, 1))
      (sigmoid): Sigmoid()
      (relu): ReLU(inplace=True)
    )
  )
  (B4): RFDB(
    (c1_d): Conv2d(50, 25, kernel_size=(1, 1), stride=(1, 1))
    (c1_r): Conv2d(50, 50, kernel_size=(3, 3), stride=(1, 1), padding=(1, 1))
    (c2_d): Conv2d(50, 25, kernel_size=(1, 1), stride=(1, 1))
    (c2_r): Conv2d(50, 50, kernel_size=(3, 3), stride=(1, 1), padding=(1, 1))
    (c3_d): Conv2d(50, 25, kernel_size=(1, 1), stride=(1, 1))
    (c3_r): Conv2d(50, 50, kernel_size=(3, 3), stride=(1, 1), padding=(1, 1))
    (c4): Conv2d(50, 25, kernel_size=(3, 3), stride=(1, 1), padding=(1, 1))
    (act): LeakyReLU(negative_slope=0.05, inplace=True)
    (c5): Conv2d(100, 50, kernel_size=(1, 1), stride=(1, 1))
    (esa): ESA(
      (conv1): Conv2d(50, 12, kernel_size=(1, 1), stride=(1, 1))
      (conv_f): Conv2d(12, 12, kernel_size=(1, 1), stride=(1, 1))
      (conv_max): Conv2d(12, 12, kernel_size=(3, 3), stride=(1, 1), padding=(1, 1))
      (conv2): Conv2d(12, 12, kernel_size=(3, 3), stride=(2, 2))
      (conv3): Conv2d(12, 12, kernel_size=(3, 3), stride=(1, 1), padding=(1, 1))
      (conv3_): Conv2d(12, 12, kernel_size=(3, 3), stride=(1, 1), padding=(1, 1))
      (conv4): Conv2d(12, 50, kernel_size=(1, 1), stride=(1, 1))
      (sigmoid): Sigmoid()
      (relu): ReLU(inplace=True)
    )
  )
  (c): Sequential(
    (0): Conv2d(200, 50, kernel_size=(1, 1), stride=(1, 1))
    (1): LeakyReLU(negative_slope=0.05, inplace=True)
  )
  (LR_conv): Conv2d(50, 50, kernel_size=(3, 3), stride=(1, 1), padding=(1, 1))
  (upsampler): Sequential(
    (0): Conv2d(50, 48, kernel_size=(3, 3), stride=(1, 1), padding=(1, 1))
    (1): PixelShuffle(upscale_factor=4)
  )
)
[Epoch 1]	Learning rate: 1.00e-4
[1600/16000]	[L1: 42.3724]	8.2+10.1s
[3200/16000]	[L1: 30.5798]	3.5+0.5s
[4800/16000]	[L1: 25.5398]	3.8+0.4s
[6400/16000]	[L1: 22.4737]	3.7+0.5s
[8000/16000]	[L1: 20.2305]	3.5+0.5s
[9600/16000]	[L1: 18.6665]	3.9+0.6s
[11200/16000]	[L1: 17.4101]	6.7+1.3s
[12800/16000]	[L1: 16.4440]	6.1+1.3s
…
[16000/16000]	[L1: 6.4463]	3.5+0.6s

Evaluation:
[DIV2K x4]	PSNR: nan (Best: nan @epoch 1)
Forward: 2.37s

Saving...
Total: 2.61s

[Epoch 299]	Learning rate: 5.00e-5
[1600/16000]	[L1: 6.5162]	3.7+9.8s
[3200/16000]	[L1: 6.3186]	3.7+0.5s
[4800/16000]	[L1: 6.3138]	3.7+0.4s
[6400/16000]	[L1: 6.3597]	3.5+0.5s
[8000/16000]	[L1: 6.4359]	3.8+0.5s
[9600/16000]	[L1: 6.4054]	3.9+0.4s
[11200/16000]	[L1: 6.3844]	4.1+0.4s
[12800/16000]	[L1: 6.3918]	3.6+0.4s
[14400/16000]	[L1: 6.4180]	3.6+0.5s
[16000/16000]	[L1: 6.4352]	3.7+0.5s

Evaluation:
[DIV2K x4]	PSNR: nan (Best: nan @epoch 1)
Forward: 2.33s

Saving...
Total: 2.57s

RFDN(
  (fea_conv): Conv2d(3, 50, kernel_size=(3, 3), stride=(1, 1), padding=(1, 1))
  (B1): RFDB(
    (c1_d): Conv2d(50, 25, kernel_size=(1, 1), stride=(1, 1))
    (c1_r): Conv2d(50, 50, kernel_size=(3, 3), stride=(1, 1), padding=(1, 1))
    (c2_d): Conv2d(50, 25, kernel_size=(1, 1), stride=(1, 1))
    (c2_r): Conv2d(50, 50, kernel_size=(3, 3), stride=(1, 1), padding=(1, 1))
    (c3_d): Conv2d(50, 25, kernel_size=(1, 1), stride=(1, 1))
    (c3_r): Conv2d(50, 50, kernel_size=(3, 3), stride=(1, 1), padding=(1, 1))
    (c4): Conv2d(50, 25, kernel_size=(3, 3), stride=(1, 1), padding=(1, 1))
    (act): LeakyReLU(negative_slope=0.05, inplace=True)
    (c5): Conv2d(100, 50, kernel_size=(1, 1), stride=(1, 1))
    (esa): ESA(
      (conv1): Conv2d(50, 12, kernel_size=(1, 1), stride=(1, 1))
      (conv_f): Conv2d(12, 12, kernel_size=(1, 1), stride=(1, 1))
      (conv_max): Conv2d(12, 12, kernel_size=(3, 3), stride=(1, 1), padding=(1, 1))
      (conv2): Conv2d(12, 12, kernel_size=(3, 3), stride=(2, 2))
      (conv3): Conv2d(12, 12, kernel_size=(3, 3), stride=(1, 1), padding=(1, 1))
      (conv3_): Conv2d(12, 12, kernel_size=(3, 3), stride=(1, 1), padding=(1, 1))
      (conv4): Conv2d(12, 50, kernel_size=(1, 1), stride=(1, 1))
      (sigmoid): Sigmoid()
      (relu): ReLU(inplace=True)
    )
  )
  (B2): RFDB(
    (c1_d): Conv2d(50, 25, kernel_size=(1, 1), stride=(1, 1))
    (c1_r): Conv2d(50, 50, kernel_size=(3, 3), stride=(1, 1), padding=(1, 1))
    (c2_d): Conv2d(50, 25, kernel_size=(1, 1), stride=(1, 1))
    (c2_r): Conv2d(50, 50, kernel_size=(3, 3), stride=(1, 1), padding=(1, 1))
    (c3_d): Conv2d(50, 25, kernel_size=(1, 1), stride=(1, 1))
    (c3_r): Conv2d(50, 50, kernel_size=(3, 3), stride=(1, 1), padding=(1, 1))
    (c4): Conv2d(50, 25, kernel_size=(3, 3), stride=(1, 1), padding=(1, 1))
    (act): LeakyReLU(negative_slope=0.05, inplace=True)
    (c5): Conv2d(100, 50, kernel_size=(1, 1), stride=(1, 1))
    (esa): ESA(
      (conv1): Conv2d(50, 12, kernel_size=(1, 1), stride=(1, 1))
      (conv_f): Conv2d(12, 12, kernel_size=(1, 1), stride=(1, 1))
      (conv_max): Conv2d(12, 12, kernel_size=(3, 3), stride=(1, 1), padding=(1, 1))
      (conv2): Conv2d(12, 12, kernel_size=(3, 3), stride=(2, 2))
      (conv3): Conv2d(12, 12, kernel_size=(3, 3), stride=(1, 1), padding=(1, 1))
      (conv3_): Conv2d(12, 12, kernel_size=(3, 3), stride=(1, 1), padding=(1, 1))
      (conv4): Conv2d(12, 50, kernel_size=(1, 1), stride=(1, 1))
      (sigmoid): Sigmoid()
      (relu): ReLU(inplace=True)
    )
  )
  (B3): RFDB(
    (c1_d): Conv2d(50, 25, kernel_size=(1, 1), stride=(1, 1))
    (c1_r): Conv2d(50, 50, kernel_size=(3, 3), stride=(1, 1), padding=(1, 1))
    (c2_d): Conv2d(50, 25, kernel_size=(1, 1), stride=(1, 1))
    (c2_r): Conv2d(50, 50, kernel_size=(3, 3), stride=(1, 1), padding=(1, 1))
    (c3_d): Conv2d(50, 25, kernel_size=(1, 1), stride=(1, 1))
    (c3_r): Conv2d(50, 50, kernel_size=(3, 3), stride=(1, 1), padding=(1, 1))
    (c4): Conv2d(50, 25, kernel_size=(3, 3), stride=(1, 1), padding=(1, 1))
    (act): LeakyReLU(negative_slope=0.05, inplace=True)
    (c5): Conv2d(100, 50, kernel_size=(1, 1), stride=(1, 1))
    (esa): ESA(
      (conv1): Conv2d(50, 12, kernel_size=(1, 1), stride=(1, 1))
      (conv_f): Conv2d(12, 12, kernel_size=(1, 1), stride=(1, 1))
      (conv_max): Conv2d(12, 12, kernel_size=(3, 3), stride=(1, 1), padding=(1, 1))
      (conv2): Conv2d(12, 12, kernel_size=(3, 3), stride=(2, 2))
      (conv3): Conv2d(12, 12, kernel_size=(3, 3), stride=(1, 1), padding=(1, 1))
      (conv3_): Conv2d(12, 12, kernel_size=(3, 3), stride=(1, 1), padding=(1, 1))
      (conv4): Conv2d(12, 50, kernel_size=(1, 1), stride=(1, 1))
      (sigmoid): Sigmoid()
      (relu): ReLU(inplace=True)
    )
  )
  (B4): RFDB(
    (c1_d): Conv2d(50, 25, kernel_size=(1, 1), stride=(1, 1))
    (c1_r): Conv2d(50, 50, kernel_size=(3, 3), stride=(1, 1), padding=(1, 1))
    (c2_d): Conv2d(50, 25, kernel_size=(1, 1), stride=(1, 1))
    (c2_r): Conv2d(50, 50, kernel_size=(3, 3), stride=(1, 1), padding=(1, 1))
    (c3_d): Conv2d(50, 25, kernel_size=(1, 1), stride=(1, 1))
    (c3_r): Conv2d(50, 50, kernel_size=(3, 3), stride=(1, 1), padding=(1, 1))
    (c4): Conv2d(50, 25, kernel_size=(3, 3), stride=(1, 1), padding=(1, 1))
    (act): LeakyReLU(negative_slope=0.05, inplace=True)
    (c5): Conv2d(100, 50, kernel_size=(1, 1), stride=(1, 1))
    (esa): ESA(
      (conv1): Conv2d(50, 12, kernel_size=(1, 1), stride=(1, 1))
      (conv_f): Conv2d(12, 12, kernel_size=(1, 1), stride=(1, 1))
      (conv_max): Conv2d(12, 12, kernel_size=(3, 3), stride=(1, 1), padding=(1, 1))
      (conv2): Conv2d(12, 12, kernel_size=(3, 3), stride=(2, 2))
      (conv3): Conv2d(12, 12, kernel_size=(3, 3), stride=(1, 1), padding=(1, 1))
      (conv3_): Conv2d(12, 12, kernel_size=(3, 3), stride=(1, 1), padding=(1, 1))
      (conv4): Conv2d(12, 50, kernel_size=(1, 1), stride=(1, 1))
      (sigmoid): Sigmoid()
      (relu): ReLU(inplace=True)
    )
  )
  (c): Sequential(
    (0): Conv2d(200, 50, kernel_size=(1, 1), stride=(1, 1))
    (1): LeakyReLU(negative_slope=0.05, inplace=True)
  )
  (LR_conv): Conv2d(50, 50, kernel_size=(3, 3), stride=(1, 1), padding=(1, 1))
  (upsampler): Sequential(
    (0): Conv2d(50, 48, kernel_size=(3, 3), stride=(1, 1), padding=(1, 1))
    (1): PixelShuffle(upscale_factor=4)
  )
)
[Epoch 1]	Learning rate: 1.00e-4
[1600/16000]	[L1: 42.3724]	8.9+10.7s
[3200/16000]	[L1: 30.5797]	4.3+0.4s
[4800/16000]	[L1: 25.5487]	3.8+0.4s
[6400/16000]	[L1: 22.5035]	3.8+0.4s
[8000/16000]	[L1: 20.2746]	3.8+0.4s
[9600/16000]	[L1: 18.7377]	3.9+0.4s
[11200/16000]	[L1: 17.4824]	3.8+0.4s
[12800/16000]	[L1: 16.5163]	3.7+0.4s
[14400/16000]	[L1: 15.7515]	3.9+0.4s
[16000/16000]	[L1: 15.0745]	3.8+0.5s

Evaluation:
[DIV2K x4]	PSNR: nan (Best: nan @epoch 1)
Forward: 2.65s

Saving...
Total: 3.26s

[Epoch 2]	Learning rate: 1.00e-4
[1600/16000]	[L1: 8.9869]	4.1+10.3s
RFDN(
  (fea_conv): Conv2d(3, 50, kernel_size=(3, 3), stride=(1, 1), padding=(1, 1))
  (B1): RFDB(
    (c1_d): Conv2d(50, 25, kernel_size=(1, 1), stride=(1, 1))
    (c1_r): Conv2d(50, 50, kernel_size=(3, 3), stride=(1, 1), padding=(1, 1))
    (c2_d): Conv2d(50, 25, kernel_size=(1, 1), stride=(1, 1))
    (c2_r): Conv2d(50, 50, kernel_size=(3, 3), stride=(1, 1), padding=(1, 1))
    (c3_d): Conv2d(50, 25, kernel_size=(1, 1), stride=(1, 1))
    (c3_r): Conv2d(50, 50, kernel_size=(3, 3), stride=(1, 1), padding=(1, 1))
    (c4): Conv2d(50, 25, kernel_size=(3, 3), stride=(1, 1), padding=(1, 1))
    (act): LeakyReLU(negative_slope=0.05, inplace=True)
    (c5): Conv2d(100, 50, kernel_size=(1, 1), stride=(1, 1))
    (esa): ESA(
      (conv1): Conv2d(50, 12, kernel_size=(1, 1), stride=(1, 1))
      (conv_f): Conv2d(12, 12, kernel_size=(1, 1), stride=(1, 1))
      (conv_max): Conv2d(12, 12, kernel_size=(3, 3), stride=(1, 1), padding=(1, 1))
      (conv2): Conv2d(12, 12, kernel_size=(3, 3), stride=(2, 2))
      (conv3): Conv2d(12, 12, kernel_size=(3, 3), stride=(1, 1), padding=(1, 1))
      (conv3_): Conv2d(12, 12, kernel_size=(3, 3), stride=(1, 1), padding=(1, 1))
      (conv4): Conv2d(12, 50, kernel_size=(1, 1), stride=(1, 1))
      (sigmoid): Sigmoid()
      (relu): ReLU(inplace=True)
    )
  )
  (B2): RFDB(
    (c1_d): Conv2d(50, 25, kernel_size=(1, 1), stride=(1, 1))
    (c1_r): Conv2d(50, 50, kernel_size=(3, 3), stride=(1, 1), padding=(1, 1))
    (c2_d): Conv2d(50, 25, kernel_size=(1, 1), stride=(1, 1))
    (c2_r): Conv2d(50, 50, kernel_size=(3, 3), stride=(1, 1), padding=(1, 1))
    (c3_d): Conv2d(50, 25, kernel_size=(1, 1), stride=(1, 1))
    (c3_r): Conv2d(50, 50, kernel_size=(3, 3), stride=(1, 1), padding=(1, 1))
    (c4): Conv2d(50, 25, kernel_size=(3, 3), stride=(1, 1), padding=(1, 1))
    (act): LeakyReLU(negative_slope=0.05, inplace=True)
    (c5): Conv2d(100, 50, kernel_size=(1, 1), stride=(1, 1))
    (esa): ESA(
      (conv1): Conv2d(50, 12, kernel_size=(1, 1), stride=(1, 1))
      (conv_f): Conv2d(12, 12, kernel_size=(1, 1), stride=(1, 1))
      (conv_max): Conv2d(12, 12, kernel_size=(3, 3), stride=(1, 1), padding=(1, 1))
      (conv2): Conv2d(12, 12, kernel_size=(3, 3), stride=(2, 2))
      (conv3): Conv2d(12, 12, kernel_size=(3, 3), stride=(1, 1), padding=(1, 1))
      (conv3_): Conv2d(12, 12, kernel_size=(3, 3), stride=(1, 1), padding=(1, 1))
      (conv4): Conv2d(12, 50, kernel_size=(1, 1), stride=(1, 1))
      (sigmoid): Sigmoid()
      (relu): ReLU(inplace=True)
    )
  )
  (B3): RFDB(
    (c1_d): Conv2d(50, 25, kernel_size=(1, 1), stride=(1, 1))
    (c1_r): Conv2d(50, 50, kernel_size=(3, 3), stride=(1, 1), padding=(1, 1))
    (c2_d): Conv2d(50, 25, kernel_size=(1, 1), stride=(1, 1))
    (c2_r): Conv2d(50, 50, kernel_size=(3, 3), stride=(1, 1), padding=(1, 1))
    (c3_d): Conv2d(50, 25, kernel_size=(1, 1), stride=(1, 1))
    (c3_r): Conv2d(50, 50, kernel_size=(3, 3), stride=(1, 1), padding=(1, 1))
    (c4): Conv2d(50, 25, kernel_size=(3, 3), stride=(1, 1), padding=(1, 1))
    (act): LeakyReLU(negative_slope=0.05, inplace=True)
    (c5): Conv2d(100, 50, kernel_size=(1, 1), stride=(1, 1))
    (esa): ESA(
      (conv1): Conv2d(50, 12, kernel_size=(1, 1), stride=(1, 1))
      (conv_f): Conv2d(12, 12, kernel_size=(1, 1), stride=(1, 1))
      (conv_max): Conv2d(12, 12, kernel_size=(3, 3), stride=(1, 1), padding=(1, 1))
      (conv2): Conv2d(12, 12, kernel_size=(3, 3), stride=(2, 2))
      (conv3): Conv2d(12, 12, kernel_size=(3, 3), stride=(1, 1), padding=(1, 1))
      (conv3_): Conv2d(12, 12, kernel_size=(3, 3), stride=(1, 1), padding=(1, 1))
      (conv4): Conv2d(12, 50, kernel_size=(1, 1), stride=(1, 1))
      (sigmoid): Sigmoid()
      (relu): ReLU(inplace=True)
    )
  )
  (B4): RFDB(
    (c1_d): Conv2d(50, 25, kernel_size=(1, 1), stride=(1, 1))
    (c1_r): Conv2d(50, 50, kernel_size=(3, 3), stride=(1, 1), padding=(1, 1))
    (c2_d): Conv2d(50, 25, kernel_size=(1, 1), stride=(1, 1))
    (c2_r): Conv2d(50, 50, kernel_size=(3, 3), stride=(1, 1), padding=(1, 1))
    (c3_d): Conv2d(50, 25, kernel_size=(1, 1), stride=(1, 1))
    (c3_r): Conv2d(50, 50, kernel_size=(3, 3), stride=(1, 1), padding=(1, 1))
    (c4): Conv2d(50, 25, kernel_size=(3, 3), stride=(1, 1), padding=(1, 1))
    (act): LeakyReLU(negative_slope=0.05, inplace=True)
    (c5): Conv2d(100, 50, kernel_size=(1, 1), stride=(1, 1))
    (esa): ESA(
      (conv1): Conv2d(50, 12, kernel_size=(1, 1), stride=(1, 1))
      (conv_f): Conv2d(12, 12, kernel_size=(1, 1), stride=(1, 1))
      (conv_max): Conv2d(12, 12, kernel_size=(3, 3), stride=(1, 1), padding=(1, 1))
      (conv2): Conv2d(12, 12, kernel_size=(3, 3), stride=(2, 2))
      (conv3): Conv2d(12, 12, kernel_size=(3, 3), stride=(1, 1), padding=(1, 1))
      (conv3_): Conv2d(12, 12, kernel_size=(3, 3), stride=(1, 1), padding=(1, 1))
      (conv4): Conv2d(12, 50, kernel_size=(1, 1), stride=(1, 1))
      (sigmoid): Sigmoid()
      (relu): ReLU(inplace=True)
    )
  )
  (c): Sequential(
    (0): Conv2d(200, 50, kernel_size=(1, 1), stride=(1, 1))
    (1): LeakyReLU(negative_slope=0.05, inplace=True)
  )
  (LR_conv): Conv2d(50, 50, kernel_size=(3, 3), stride=(1, 1), padding=(1, 1))
  (upsampler): Sequential(
    (0): Conv2d(50, 48, kernel_size=(3, 3), stride=(1, 1), padding=(1, 1))
    (1): PixelShuffle(upscale_factor=4)
  )
)
[Epoch 1]	Learning rate: 1.00e-4
RFDN(
  (fea_conv): Conv2d(3, 50, kernel_size=(3, 3), stride=(1, 1), padding=(1, 1))
  (B1): RFDB(
    (c1_d): Conv2d(50, 25, kernel_size=(1, 1), stride=(1, 1))
    (c1_r): Conv2d(50, 50, kernel_size=(3, 3), stride=(1, 1), padding=(1, 1))
    (c2_d): Conv2d(50, 25, kernel_size=(1, 1), stride=(1, 1))
    (c2_r): Conv2d(50, 50, kernel_size=(3, 3), stride=(1, 1), padding=(1, 1))
    (c3_d): Conv2d(50, 25, kernel_size=(1, 1), stride=(1, 1))
    (c3_r): Conv2d(50, 50, kernel_size=(3, 3), stride=(1, 1), padding=(1, 1))
    (c4): Conv2d(50, 25, kernel_size=(3, 3), stride=(1, 1), padding=(1, 1))
    (act): LeakyReLU(negative_slope=0.05, inplace=True)
    (c5): Conv2d(100, 50, kernel_size=(1, 1), stride=(1, 1))
    (esa): ESA(
      (conv1): Conv2d(50, 12, kernel_size=(1, 1), stride=(1, 1))
      (conv_f): Conv2d(12, 12, kernel_size=(1, 1), stride=(1, 1))
      (conv_max): Conv2d(12, 12, kernel_size=(3, 3), stride=(1, 1), padding=(1, 1))
      (conv2): Conv2d(12, 12, kernel_size=(3, 3), stride=(2, 2))
      (conv3): Conv2d(12, 12, kernel_size=(3, 3), stride=(1, 1), padding=(1, 1))
      (conv3_): Conv2d(12, 12, kernel_size=(3, 3), stride=(1, 1), padding=(1, 1))
      (conv4): Conv2d(12, 50, kernel_size=(1, 1), stride=(1, 1))
      (sigmoid): Sigmoid()
      (relu): ReLU(inplace=True)
    )
  )
  (B2): RFDB(
    (c1_d): Conv2d(50, 25, kernel_size=(1, 1), stride=(1, 1))
    (c1_r): Conv2d(50, 50, kernel_size=(3, 3), stride=(1, 1), padding=(1, 1))
    (c2_d): Conv2d(50, 25, kernel_size=(1, 1), stride=(1, 1))
    (c2_r): Conv2d(50, 50, kernel_size=(3, 3), stride=(1, 1), padding=(1, 1))
    (c3_d): Conv2d(50, 25, kernel_size=(1, 1), stride=(1, 1))
    (c3_r): Conv2d(50, 50, kernel_size=(3, 3), stride=(1, 1), padding=(1, 1))
    (c4): Conv2d(50, 25, kernel_size=(3, 3), stride=(1, 1), padding=(1, 1))
    (act): LeakyReLU(negative_slope=0.05, inplace=True)
    (c5): Conv2d(100, 50, kernel_size=(1, 1), stride=(1, 1))
    (esa): ESA(
      (conv1): Conv2d(50, 12, kernel_size=(1, 1), stride=(1, 1))
      (conv_f): Conv2d(12, 12, kernel_size=(1, 1), stride=(1, 1))
      (conv_max): Conv2d(12, 12, kernel_size=(3, 3), stride=(1, 1), padding=(1, 1))
      (conv2): Conv2d(12, 12, kernel_size=(3, 3), stride=(2, 2))
      (conv3): Conv2d(12, 12, kernel_size=(3, 3), stride=(1, 1), padding=(1, 1))
      (conv3_): Conv2d(12, 12, kernel_size=(3, 3), stride=(1, 1), padding=(1, 1))
      (conv4): Conv2d(12, 50, kernel_size=(1, 1), stride=(1, 1))
      (sigmoid): Sigmoid()
      (relu): ReLU(inplace=True)
    )
  )
  (B3): RFDB(
    (c1_d): Conv2d(50, 25, kernel_size=(1, 1), stride=(1, 1))
    (c1_r): Conv2d(50, 50, kernel_size=(3, 3), stride=(1, 1), padding=(1, 1))
    (c2_d): Conv2d(50, 25, kernel_size=(1, 1), stride=(1, 1))
    (c2_r): Conv2d(50, 50, kernel_size=(3, 3), stride=(1, 1), padding=(1, 1))
    (c3_d): Conv2d(50, 25, kernel_size=(1, 1), stride=(1, 1))
    (c3_r): Conv2d(50, 50, kernel_size=(3, 3), stride=(1, 1), padding=(1, 1))
    (c4): Conv2d(50, 25, kernel_size=(3, 3), stride=(1, 1), padding=(1, 1))
    (act): LeakyReLU(negative_slope=0.05, inplace=True)
    (c5): Conv2d(100, 50, kernel_size=(1, 1), stride=(1, 1))
    (esa): ESA(
      (conv1): Conv2d(50, 12, kernel_size=(1, 1), stride=(1, 1))
      (conv_f): Conv2d(12, 12, kernel_size=(1, 1), stride=(1, 1))
      (conv_max): Conv2d(12, 12, kernel_size=(3, 3), stride=(1, 1), padding=(1, 1))
      (conv2): Conv2d(12, 12, kernel_size=(3, 3), stride=(2, 2))
      (conv3): Conv2d(12, 12, kernel_size=(3, 3), stride=(1, 1), padding=(1, 1))
      (conv3_): Conv2d(12, 12, kernel_size=(3, 3), stride=(1, 1), padding=(1, 1))
      (conv4): Conv2d(12, 50, kernel_size=(1, 1), stride=(1, 1))
      (sigmoid): Sigmoid()
      (relu): ReLU(inplace=True)
    )
  )
  (B4): RFDB(
    (c1_d): Conv2d(50, 25, kernel_size=(1, 1), stride=(1, 1))
    (c1_r): Conv2d(50, 50, kernel_size=(3, 3), stride=(1, 1), padding=(1, 1))
    (c2_d): Conv2d(50, 25, kernel_size=(1, 1), stride=(1, 1))
    (c2_r): Conv2d(50, 50, kernel_size=(3, 3), stride=(1, 1), padding=(1, 1))
    (c3_d): Conv2d(50, 25, kernel_size=(1, 1), stride=(1, 1))
    (c3_r): Conv2d(50, 50, kernel_size=(3, 3), stride=(1, 1), padding=(1, 1))
    (c4): Conv2d(50, 25, kernel_size=(3, 3), stride=(1, 1), padding=(1, 1))
    (act): LeakyReLU(negative_slope=0.05, inplace=True)
    (c5): Conv2d(100, 50, kernel_size=(1, 1), stride=(1, 1))
    (esa): ESA(
      (conv1): Conv2d(50, 12, kernel_size=(1, 1), stride=(1, 1))
      (conv_f): Conv2d(12, 12, kernel_size=(1, 1), stride=(1, 1))
      (conv_max): Conv2d(12, 12, kernel_size=(3, 3), stride=(1, 1), padding=(1, 1))
      (conv2): Conv2d(12, 12, kernel_size=(3, 3), stride=(2, 2))
      (conv3): Conv2d(12, 12, kernel_size=(3, 3), stride=(1, 1), padding=(1, 1))
      (conv3_): Conv2d(12, 12, kernel_size=(3, 3), stride=(1, 1), padding=(1, 1))
      (conv4): Conv2d(12, 50, kernel_size=(1, 1), stride=(1, 1))
      (sigmoid): Sigmoid()
      (relu): ReLU(inplace=True)
    )
  )
  (c): Sequential(
    (0): Conv2d(200, 50, kernel_size=(1, 1), stride=(1, 1))
    (1): LeakyReLU(negative_slope=0.05, inplace=True)
  )
  (LR_conv): Conv2d(50, 50, kernel_size=(3, 3), stride=(1, 1), padding=(1, 1))
  (upsampler): Sequential(
    (0): Conv2d(50, 48, kernel_size=(3, 3), stride=(1, 1), padding=(1, 1))
    (1): PixelShuffle(upscale_factor=4)
  )
)
[Epoch 1]	Learning rate: 1.00e-4
[1600/16000]	[L1: 42.3724]	9.5+20.6s
[3200/16000]	[L1: 30.5799]	4.4+0.5s
[4800/16000]	[L1: 25.5517]	5.5+0.6s
[6400/16000]	[L1: 22.4944]	4.6+0.7s
[8000/16000]	[L1: 20.2673]	4.6+0.7s
[9600/16000]	[L1: 18.7016]	4.9+0.7s
[11200/16000]	[L1: 17.4549]	4.2+0.8s
[12800/16000]	[L1: 16.4934]	4.5+0.8s
[14400/16000]	[L1: 15.7401]	4.9+0.6s
[16000/16000]	[L1: 15.0656]	4.3+0.6s

Evaluation:
[DIV2K x4]	PSNR: nan (Best: nan @epoch 1)
RFDN(
  (fea_conv): Conv2d(3, 50, kernel_size=(3, 3), stride=(1, 1), padding=(1, 1))
  (B1): RFDB(
    (c1_d): Conv2d(50, 25, kernel_size=(1, 1), stride=(1, 1))
    (c1_r): Conv2d(50, 50, kernel_size=(3, 3), stride=(1, 1), padding=(1, 1))
    (c2_d): Conv2d(50, 25, kernel_size=(1, 1), stride=(1, 1))
    (c2_r): Conv2d(50, 50, kernel_size=(3, 3), stride=(1, 1), padding=(1, 1))
    (c3_d): Conv2d(50, 25, kernel_size=(1, 1), stride=(1, 1))
    (c3_r): Conv2d(50, 50, kernel_size=(3, 3), stride=(1, 1), padding=(1, 1))
    (c4): Conv2d(50, 25, kernel_size=(3, 3), stride=(1, 1), padding=(1, 1))
    (act): LeakyReLU(negative_slope=0.05, inplace=True)
    (c5): Conv2d(100, 50, kernel_size=(1, 1), stride=(1, 1))
    (esa): ESA(
      (conv1): Conv2d(50, 12, kernel_size=(1, 1), stride=(1, 1))
      (conv_f): Conv2d(12, 12, kernel_size=(1, 1), stride=(1, 1))
      (conv_max): Conv2d(12, 12, kernel_size=(3, 3), stride=(1, 1), padding=(1, 1))
      (conv2): Conv2d(12, 12, kernel_size=(3, 3), stride=(2, 2))
      (conv3): Conv2d(12, 12, kernel_size=(3, 3), stride=(1, 1), padding=(1, 1))
      (conv3_): Conv2d(12, 12, kernel_size=(3, 3), stride=(1, 1), padding=(1, 1))
      (conv4): Conv2d(12, 50, kernel_size=(1, 1), stride=(1, 1))
      (sigmoid): Sigmoid()
      (relu): ReLU(inplace=True)
    )
  )
  (B2): RFDB(
    (c1_d): Conv2d(50, 25, kernel_size=(1, 1), stride=(1, 1))
    (c1_r): Conv2d(50, 50, kernel_size=(3, 3), stride=(1, 1), padding=(1, 1))
    (c2_d): Conv2d(50, 25, kernel_size=(1, 1), stride=(1, 1))
    (c2_r): Conv2d(50, 50, kernel_size=(3, 3), stride=(1, 1), padding=(1, 1))
    (c3_d): Conv2d(50, 25, kernel_size=(1, 1), stride=(1, 1))
    (c3_r): Conv2d(50, 50, kernel_size=(3, 3), stride=(1, 1), padding=(1, 1))
    (c4): Conv2d(50, 25, kernel_size=(3, 3), stride=(1, 1), padding=(1, 1))
    (act): LeakyReLU(negative_slope=0.05, inplace=True)
    (c5): Conv2d(100, 50, kernel_size=(1, 1), stride=(1, 1))
    (esa): ESA(
      (conv1): Conv2d(50, 12, kernel_size=(1, 1), stride=(1, 1))
      (conv_f): Conv2d(12, 12, kernel_size=(1, 1), stride=(1, 1))
      (conv_max): Conv2d(12, 12, kernel_size=(3, 3), stride=(1, 1), padding=(1, 1))
      (conv2): Conv2d(12, 12, kernel_size=(3, 3), stride=(2, 2))
      (conv3): Conv2d(12, 12, kernel_size=(3, 3), stride=(1, 1), padding=(1, 1))
      (conv3_): Conv2d(12, 12, kernel_size=(3, 3), stride=(1, 1), padding=(1, 1))
      (conv4): Conv2d(12, 50, kernel_size=(1, 1), stride=(1, 1))
      (sigmoid): Sigmoid()
      (relu): ReLU(inplace=True)
    )
  )
  (B3): RFDB(
    (c1_d): Conv2d(50, 25, kernel_size=(1, 1), stride=(1, 1))
    (c1_r): Conv2d(50, 50, kernel_size=(3, 3), stride=(1, 1), padding=(1, 1))
    (c2_d): Conv2d(50, 25, kernel_size=(1, 1), stride=(1, 1))
    (c2_r): Conv2d(50, 50, kernel_size=(3, 3), stride=(1, 1), padding=(1, 1))
    (c3_d): Conv2d(50, 25, kernel_size=(1, 1), stride=(1, 1))
    (c3_r): Conv2d(50, 50, kernel_size=(3, 3), stride=(1, 1), padding=(1, 1))
    (c4): Conv2d(50, 25, kernel_size=(3, 3), stride=(1, 1), padding=(1, 1))
    (act): LeakyReLU(negative_slope=0.05, inplace=True)
    (c5): Conv2d(100, 50, kernel_size=(1, 1), stride=(1, 1))
    (esa): ESA(
      (conv1): Conv2d(50, 12, kernel_size=(1, 1), stride=(1, 1))
      (conv_f): Conv2d(12, 12, kernel_size=(1, 1), stride=(1, 1))
      (conv_max): Conv2d(12, 12, kernel_size=(3, 3), stride=(1, 1), padding=(1, 1))
      (conv2): Conv2d(12, 12, kernel_size=(3, 3), stride=(2, 2))
      (conv3): Conv2d(12, 12, kernel_size=(3, 3), stride=(1, 1), padding=(1, 1))
      (conv3_): Conv2d(12, 12, kernel_size=(3, 3), stride=(1, 1), padding=(1, 1))
      (conv4): Conv2d(12, 50, kernel_size=(1, 1), stride=(1, 1))
      (sigmoid): Sigmoid()
      (relu): ReLU(inplace=True)
    )
  )
  (B4): RFDB(
    (c1_d): Conv2d(50, 25, kernel_size=(1, 1), stride=(1, 1))
    (c1_r): Conv2d(50, 50, kernel_size=(3, 3), stride=(1, 1), padding=(1, 1))
    (c2_d): Conv2d(50, 25, kernel_size=(1, 1), stride=(1, 1))
    (c2_r): Conv2d(50, 50, kernel_size=(3, 3), stride=(1, 1), padding=(1, 1))
    (c3_d): Conv2d(50, 25, kernel_size=(1, 1), stride=(1, 1))
    (c3_r): Conv2d(50, 50, kernel_size=(3, 3), stride=(1, 1), padding=(1, 1))
    (c4): Conv2d(50, 25, kernel_size=(3, 3), stride=(1, 1), padding=(1, 1))
    (act): LeakyReLU(negative_slope=0.05, inplace=True)
    (c5): Conv2d(100, 50, kernel_size=(1, 1), stride=(1, 1))
    (esa): ESA(
      (conv1): Conv2d(50, 12, kernel_size=(1, 1), stride=(1, 1))
      (conv_f): Conv2d(12, 12, kernel_size=(1, 1), stride=(1, 1))
      (conv_max): Conv2d(12, 12, kernel_size=(3, 3), stride=(1, 1), padding=(1, 1))
      (conv2): Conv2d(12, 12, kernel_size=(3, 3), stride=(2, 2))
      (conv3): Conv2d(12, 12, kernel_size=(3, 3), stride=(1, 1), padding=(1, 1))
      (conv3_): Conv2d(12, 12, kernel_size=(3, 3), stride=(1, 1), padding=(1, 1))
      (conv4): Conv2d(12, 50, kernel_size=(1, 1), stride=(1, 1))
      (sigmoid): Sigmoid()
      (relu): ReLU(inplace=True)
    )
  )
  (c): Sequential(
    (0): Conv2d(200, 50, kernel_size=(1, 1), stride=(1, 1))
    (1): LeakyReLU(negative_slope=0.05, inplace=True)
  )
  (LR_conv): Conv2d(50, 50, kernel_size=(3, 3), stride=(1, 1), padding=(1, 1))
  (upsampler): Sequential(
    (0): Conv2d(50, 48, kernel_size=(3, 3), stride=(1, 1), padding=(1, 1))
    (1): PixelShuffle(upscale_factor=4)
  )
)
[Epoch 1]	Learning rate: 1.00e-4
[1600/16000]	[L1: 42.3724]	8.4+21.2s
[3200/16000]	[L1: 30.5799]	4.5+0.6s
[4800/16000]	[L1: 25.5338]	4.7+0.5s
[6400/16000]	[L1: 22.4744]	4.3+0.7s
[8000/16000]	[L1: 20.2568]	4.3+0.7s
[9600/16000]	[L1: 18.6986]	4.5+0.5s
[11200/16000]	[L1: 17.4485]	4.4+0.6s
[12800/16000]	[L1: 16.4838]	4.1+0.6s
[14400/16000]	[L1: 15.7323]	4.6+0.7s
[16000/16000]	[L1: 15.0592]	4.4+0.5s

Evaluation:
[DIV2K x4]	PSNR: nan (Best: nan @epoch 1)
Forward: 5.53s

Saving...
Total: 6.36s

RFDN(
  (fea_conv): Conv2d(3, 50, kernel_size=(3, 3), stride=(1, 1), padding=(1, 1))
  (B1): RFDB(
    (c1_d): Conv2d(50, 25, kernel_size=(1, 1), stride=(1, 1))
    (c1_r): Conv2d(50, 50, kernel_size=(3, 3), stride=(1, 1), padding=(1, 1))
    (c2_d): Conv2d(50, 25, kernel_size=(1, 1), stride=(1, 1))
    (c2_r): Conv2d(50, 50, kernel_size=(3, 3), stride=(1, 1), padding=(1, 1))
    (c3_d): Conv2d(50, 25, kernel_size=(1, 1), stride=(1, 1))
    (c3_r): Conv2d(50, 50, kernel_size=(3, 3), stride=(1, 1), padding=(1, 1))
    (c4): Conv2d(50, 25, kernel_size=(3, 3), stride=(1, 1), padding=(1, 1))
    (act): LeakyReLU(negative_slope=0.05, inplace=True)
    (c5): Conv2d(100, 50, kernel_size=(1, 1), stride=(1, 1))
    (esa): ESA(
      (conv1): Conv2d(50, 12, kernel_size=(1, 1), stride=(1, 1))
      (conv_f): Conv2d(12, 12, kernel_size=(1, 1), stride=(1, 1))
      (conv_max): Conv2d(12, 12, kernel_size=(3, 3), stride=(1, 1), padding=(1, 1))
      (conv2): Conv2d(12, 12, kernel_size=(3, 3), stride=(2, 2))
      (conv3): Conv2d(12, 12, kernel_size=(3, 3), stride=(1, 1), padding=(1, 1))
      (conv3_): Conv2d(12, 12, kernel_size=(3, 3), stride=(1, 1), padding=(1, 1))
      (conv4): Conv2d(12, 50, kernel_size=(1, 1), stride=(1, 1))
      (sigmoid): Sigmoid()
      (relu): ReLU(inplace=True)
    )
  )
  (B2): RFDB(
    (c1_d): Conv2d(50, 25, kernel_size=(1, 1), stride=(1, 1))
    (c1_r): Conv2d(50, 50, kernel_size=(3, 3), stride=(1, 1), padding=(1, 1))
    (c2_d): Conv2d(50, 25, kernel_size=(1, 1), stride=(1, 1))
    (c2_r): Conv2d(50, 50, kernel_size=(3, 3), stride=(1, 1), padding=(1, 1))
    (c3_d): Conv2d(50, 25, kernel_size=(1, 1), stride=(1, 1))
    (c3_r): Conv2d(50, 50, kernel_size=(3, 3), stride=(1, 1), padding=(1, 1))
    (c4): Conv2d(50, 25, kernel_size=(3, 3), stride=(1, 1), padding=(1, 1))
    (act): LeakyReLU(negative_slope=0.05, inplace=True)
    (c5): Conv2d(100, 50, kernel_size=(1, 1), stride=(1, 1))
    (esa): ESA(
      (conv1): Conv2d(50, 12, kernel_size=(1, 1), stride=(1, 1))
      (conv_f): Conv2d(12, 12, kernel_size=(1, 1), stride=(1, 1))
      (conv_max): Conv2d(12, 12, kernel_size=(3, 3), stride=(1, 1), padding=(1, 1))
      (conv2): Conv2d(12, 12, kernel_size=(3, 3), stride=(2, 2))
      (conv3): Conv2d(12, 12, kernel_size=(3, 3), stride=(1, 1), padding=(1, 1))
      (conv3_): Conv2d(12, 12, kernel_size=(3, 3), stride=(1, 1), padding=(1, 1))
      (conv4): Conv2d(12, 50, kernel_size=(1, 1), stride=(1, 1))
      (sigmoid): Sigmoid()
      (relu): ReLU(inplace=True)
    )
  )
  (B3): RFDB(
    (c1_d): Conv2d(50, 25, kernel_size=(1, 1), stride=(1, 1))
    (c1_r): Conv2d(50, 50, kernel_size=(3, 3), stride=(1, 1), padding=(1, 1))
    (c2_d): Conv2d(50, 25, kernel_size=(1, 1), stride=(1, 1))
    (c2_r): Conv2d(50, 50, kernel_size=(3, 3), stride=(1, 1), padding=(1, 1))
    (c3_d): Conv2d(50, 25, kernel_size=(1, 1), stride=(1, 1))
    (c3_r): Conv2d(50, 50, kernel_size=(3, 3), stride=(1, 1), padding=(1, 1))
    (c4): Conv2d(50, 25, kernel_size=(3, 3), stride=(1, 1), padding=(1, 1))
    (act): LeakyReLU(negative_slope=0.05, inplace=True)
    (c5): Conv2d(100, 50, kernel_size=(1, 1), stride=(1, 1))
    (esa): ESA(
      (conv1): Conv2d(50, 12, kernel_size=(1, 1), stride=(1, 1))
      (conv_f): Conv2d(12, 12, kernel_size=(1, 1), stride=(1, 1))
      (conv_max): Conv2d(12, 12, kernel_size=(3, 3), stride=(1, 1), padding=(1, 1))
      (conv2): Conv2d(12, 12, kernel_size=(3, 3), stride=(2, 2))
      (conv3): Conv2d(12, 12, kernel_size=(3, 3), stride=(1, 1), padding=(1, 1))
      (conv3_): Conv2d(12, 12, kernel_size=(3, 3), stride=(1, 1), padding=(1, 1))
      (conv4): Conv2d(12, 50, kernel_size=(1, 1), stride=(1, 1))
      (sigmoid): Sigmoid()
      (relu): ReLU(inplace=True)
    )
  )
  (B4): RFDB(
    (c1_d): Conv2d(50, 25, kernel_size=(1, 1), stride=(1, 1))
    (c1_r): Conv2d(50, 50, kernel_size=(3, 3), stride=(1, 1), padding=(1, 1))
    (c2_d): Conv2d(50, 25, kernel_size=(1, 1), stride=(1, 1))
    (c2_r): Conv2d(50, 50, kernel_size=(3, 3), stride=(1, 1), padding=(1, 1))
    (c3_d): Conv2d(50, 25, kernel_size=(1, 1), stride=(1, 1))
    (c3_r): Conv2d(50, 50, kernel_size=(3, 3), stride=(1, 1), padding=(1, 1))
    (c4): Conv2d(50, 25, kernel_size=(3, 3), stride=(1, 1), padding=(1, 1))
    (act): LeakyReLU(negative_slope=0.05, inplace=True)
    (c5): Conv2d(100, 50, kernel_size=(1, 1), stride=(1, 1))
    (esa): ESA(
      (conv1): Conv2d(50, 12, kernel_size=(1, 1), stride=(1, 1))
      (conv_f): Conv2d(12, 12, kernel_size=(1, 1), stride=(1, 1))
      (conv_max): Conv2d(12, 12, kernel_size=(3, 3), stride=(1, 1), padding=(1, 1))
      (conv2): Conv2d(12, 12, kernel_size=(3, 3), stride=(2, 2))
      (conv3): Conv2d(12, 12, kernel_size=(3, 3), stride=(1, 1), padding=(1, 1))
      (conv3_): Conv2d(12, 12, kernel_size=(3, 3), stride=(1, 1), padding=(1, 1))
      (conv4): Conv2d(12, 50, kernel_size=(1, 1), stride=(1, 1))
      (sigmoid): Sigmoid()
      (relu): ReLU(inplace=True)
    )
  )
  (c): Sequential(
    (0): Conv2d(200, 50, kernel_size=(1, 1), stride=(1, 1))
    (1): LeakyReLU(negative_slope=0.05, inplace=True)
  )
  (LR_conv): Conv2d(50, 50, kernel_size=(3, 3), stride=(1, 1), padding=(1, 1))
  (upsampler): Sequential(
    (0): Conv2d(50, 48, kernel_size=(3, 3), stride=(1, 1), padding=(1, 1))
    (1): PixelShuffle(upscale_factor=4)
  )
)
[Epoch 1]	Learning rate: 1.00e-4
RFDN(
  (fea_conv): Conv2d(3, 50, kernel_size=(3, 3), stride=(1, 1), padding=(1, 1))
  (B1): RFDB(
    (c1_d): Conv2d(50, 25, kernel_size=(1, 1), stride=(1, 1))
    (c1_r): Conv2d(50, 50, kernel_size=(3, 3), stride=(1, 1), padding=(1, 1))
    (c2_d): Conv2d(50, 25, kernel_size=(1, 1), stride=(1, 1))
    (c2_r): Conv2d(50, 50, kernel_size=(3, 3), stride=(1, 1), padding=(1, 1))
    (c3_d): Conv2d(50, 25, kernel_size=(1, 1), stride=(1, 1))
    (c3_r): Conv2d(50, 50, kernel_size=(3, 3), stride=(1, 1), padding=(1, 1))
    (c4): Conv2d(50, 25, kernel_size=(3, 3), stride=(1, 1), padding=(1, 1))
    (act): LeakyReLU(negative_slope=0.05, inplace=True)
    (c5): Conv2d(100, 50, kernel_size=(1, 1), stride=(1, 1))
    (esa): ESA(
      (conv1): Conv2d(50, 12, kernel_size=(1, 1), stride=(1, 1))
      (conv_f): Conv2d(12, 12, kernel_size=(1, 1), stride=(1, 1))
      (conv_max): Conv2d(12, 12, kernel_size=(3, 3), stride=(1, 1), padding=(1, 1))
      (conv2): Conv2d(12, 12, kernel_size=(3, 3), stride=(2, 2))
      (conv3): Conv2d(12, 12, kernel_size=(3, 3), stride=(1, 1), padding=(1, 1))
      (conv3_): Conv2d(12, 12, kernel_size=(3, 3), stride=(1, 1), padding=(1, 1))
      (conv4): Conv2d(12, 50, kernel_size=(1, 1), stride=(1, 1))
      (sigmoid): Sigmoid()
      (relu): ReLU(inplace=True)
    )
  )
  (B2): RFDB(
    (c1_d): Conv2d(50, 25, kernel_size=(1, 1), stride=(1, 1))
    (c1_r): Conv2d(50, 50, kernel_size=(3, 3), stride=(1, 1), padding=(1, 1))
    (c2_d): Conv2d(50, 25, kernel_size=(1, 1), stride=(1, 1))
    (c2_r): Conv2d(50, 50, kernel_size=(3, 3), stride=(1, 1), padding=(1, 1))
    (c3_d): Conv2d(50, 25, kernel_size=(1, 1), stride=(1, 1))
    (c3_r): Conv2d(50, 50, kernel_size=(3, 3), stride=(1, 1), padding=(1, 1))
    (c4): Conv2d(50, 25, kernel_size=(3, 3), stride=(1, 1), padding=(1, 1))
    (act): LeakyReLU(negative_slope=0.05, inplace=True)
    (c5): Conv2d(100, 50, kernel_size=(1, 1), stride=(1, 1))
    (esa): ESA(
      (conv1): Conv2d(50, 12, kernel_size=(1, 1), stride=(1, 1))
      (conv_f): Conv2d(12, 12, kernel_size=(1, 1), stride=(1, 1))
      (conv_max): Conv2d(12, 12, kernel_size=(3, 3), stride=(1, 1), padding=(1, 1))
      (conv2): Conv2d(12, 12, kernel_size=(3, 3), stride=(2, 2))
      (conv3): Conv2d(12, 12, kernel_size=(3, 3), stride=(1, 1), padding=(1, 1))
      (conv3_): Conv2d(12, 12, kernel_size=(3, 3), stride=(1, 1), padding=(1, 1))
      (conv4): Conv2d(12, 50, kernel_size=(1, 1), stride=(1, 1))
      (sigmoid): Sigmoid()
      (relu): ReLU(inplace=True)
    )
  )
  (B3): RFDB(
    (c1_d): Conv2d(50, 25, kernel_size=(1, 1), stride=(1, 1))
    (c1_r): Conv2d(50, 50, kernel_size=(3, 3), stride=(1, 1), padding=(1, 1))
    (c2_d): Conv2d(50, 25, kernel_size=(1, 1), stride=(1, 1))
    (c2_r): Conv2d(50, 50, kernel_size=(3, 3), stride=(1, 1), padding=(1, 1))
    (c3_d): Conv2d(50, 25, kernel_size=(1, 1), stride=(1, 1))
    (c3_r): Conv2d(50, 50, kernel_size=(3, 3), stride=(1, 1), padding=(1, 1))
    (c4): Conv2d(50, 25, kernel_size=(3, 3), stride=(1, 1), padding=(1, 1))
    (act): LeakyReLU(negative_slope=0.05, inplace=True)
    (c5): Conv2d(100, 50, kernel_size=(1, 1), stride=(1, 1))
    (esa): ESA(
      (conv1): Conv2d(50, 12, kernel_size=(1, 1), stride=(1, 1))
      (conv_f): Conv2d(12, 12, kernel_size=(1, 1), stride=(1, 1))
      (conv_max): Conv2d(12, 12, kernel_size=(3, 3), stride=(1, 1), padding=(1, 1))
      (conv2): Conv2d(12, 12, kernel_size=(3, 3), stride=(2, 2))
      (conv3): Conv2d(12, 12, kernel_size=(3, 3), stride=(1, 1), padding=(1, 1))
      (conv3_): Conv2d(12, 12, kernel_size=(3, 3), stride=(1, 1), padding=(1, 1))
      (conv4): Conv2d(12, 50, kernel_size=(1, 1), stride=(1, 1))
      (sigmoid): Sigmoid()
      (relu): ReLU(inplace=True)
    )
  )
  (B4): RFDB(
    (c1_d): Conv2d(50, 25, kernel_size=(1, 1), stride=(1, 1))
    (c1_r): Conv2d(50, 50, kernel_size=(3, 3), stride=(1, 1), padding=(1, 1))
    (c2_d): Conv2d(50, 25, kernel_size=(1, 1), stride=(1, 1))
    (c2_r): Conv2d(50, 50, kernel_size=(3, 3), stride=(1, 1), padding=(1, 1))
    (c3_d): Conv2d(50, 25, kernel_size=(1, 1), stride=(1, 1))
    (c3_r): Conv2d(50, 50, kernel_size=(3, 3), stride=(1, 1), padding=(1, 1))
    (c4): Conv2d(50, 25, kernel_size=(3, 3), stride=(1, 1), padding=(1, 1))
    (act): LeakyReLU(negative_slope=0.05, inplace=True)
    (c5): Conv2d(100, 50, kernel_size=(1, 1), stride=(1, 1))
    (esa): ESA(
      (conv1): Conv2d(50, 12, kernel_size=(1, 1), stride=(1, 1))
      (conv_f): Conv2d(12, 12, kernel_size=(1, 1), stride=(1, 1))
      (conv_max): Conv2d(12, 12, kernel_size=(3, 3), stride=(1, 1), padding=(1, 1))
      (conv2): Conv2d(12, 12, kernel_size=(3, 3), stride=(2, 2))
      (conv3): Conv2d(12, 12, kernel_size=(3, 3), stride=(1, 1), padding=(1, 1))
      (conv3_): Conv2d(12, 12, kernel_size=(3, 3), stride=(1, 1), padding=(1, 1))
      (conv4): Conv2d(12, 50, kernel_size=(1, 1), stride=(1, 1))
      (sigmoid): Sigmoid()
      (relu): ReLU(inplace=True)
    )
  )
  (c): Sequential(
    (0): Conv2d(200, 50, kernel_size=(1, 1), stride=(1, 1))
    (1): LeakyReLU(negative_slope=0.05, inplace=True)
  )
  (LR_conv): Conv2d(50, 50, kernel_size=(3, 3), stride=(1, 1), padding=(1, 1))
  (upsampler): Sequential(
    (0): Conv2d(50, 48, kernel_size=(3, 3), stride=(1, 1), padding=(1, 1))
    (1): PixelShuffle(upscale_factor=4)
  )
)
[Epoch 1]	Learning rate: 1.00e-4
[1600/16000]	[L1: 42.3723]	10.1+12.2s
[3200/16000]	[L1: 30.5799]	4.1+0.4s
[4800/16000]	[L1: 25.5357]	4.0+0.4s
[6400/16000]	[L1: 22.4611]	4.2+0.4s
[8000/16000]	[L1: 20.2397]	4.2+0.4s
[9600/16000]	[L1: 18.6856]	4.0+0.4s
[11200/16000]	[L1: 17.4352]	3.8+0.3s
[12800/16000]	[L1: 16.4747]	3.8+0.3s
…
[DIV2K x4]	PSNR: nan (Best: nan @epoch 1)
Forward: 4.72s

Saving...
Total: 5.20s

[Epoch 6]	Learning rate: 1.00e-4
[1600/16000]	[L1: 7.7369]	4.2+19.8s
[3200/16000]	[L1: 7.6873]	3.7+0.5s
[4800/16000]	[L1: 7.7001]	3.8+0.5s
[6400/16000]	[L1: 7.6637]	3.9+0.5s
[8000/16000]	[L1: 7.6763]	3.9+0.5s
[9600/16000]	[L1: 7.6983]	3.8+0.5s
[11200/16000]	[L1: 7.7200]	3.8+0.5s
[12800/16000]	[L1: 7.7223]	4.0+0.4s
[14400/16000]	[L1: 7.7118]	3.9+0.5s
[16000/16000]	[L1: 7.6959]	3.7+0.5s

Evaluation:
[DIV2K x4]	PSNR: nan (Best: nan @epoch 1)
Forward: 5.10s

Saving...
Total: 5.59s

[Epoch 7]	Learning rate: 1.00e-4
RFDN(
  (fea_conv): Conv2d(3, 50, kernel_size=(3, 3), stride=(1, 1), padding=(1, 1))
  (B1): RFDB(
    (c1_d): Conv2d(50, 25, kernel_size=(1, 1), stride=(1, 1))
    (c1_r): Conv2d(50, 50, kernel_size=(3, 3), stride=(1, 1), padding=(1, 1))
    (c2_d): Conv2d(50, 25, kernel_size=(1, 1), stride=(1, 1))
    (c2_r): Conv2d(50, 50, kernel_size=(3, 3), stride=(1, 1), padding=(1, 1))
    (c3_d): Conv2d(50, 25, kernel_size=(1, 1), stride=(1, 1))
    (c3_r): Conv2d(50, 50, kernel_size=(3, 3), stride=(1, 1), padding=(1, 1))
    (c4): Conv2d(50, 25, kernel_size=(3, 3), stride=(1, 1), padding=(1, 1))
    (act): LeakyReLU(negative_slope=0.05, inplace=True)
    (c5): Conv2d(100, 50, kernel_size=(1, 1), stride=(1, 1))
    (esa): ESA(
      (conv1): Conv2d(50, 12, kernel_size=(1, 1), stride=(1, 1))
      (conv_f): Conv2d(12, 12, kernel_size=(1, 1), stride=(1, 1))
      (conv_max): Conv2d(12, 12, kernel_size=(3, 3), stride=(1, 1), padding=(1, 1))
      (conv2): Conv2d(12, 12, kernel_size=(3, 3), stride=(2, 2))
      (conv3): Conv2d(12, 12, kernel_size=(3, 3), stride=(1, 1), padding=(1, 1))
      (conv3_): Conv2d(12, 12, kernel_size=(3, 3), stride=(1, 1), padding=(1, 1))
      (conv4): Conv2d(12, 50, kernel_size=(1, 1), stride=(1, 1))
      (sigmoid): Sigmoid()
      (relu): ReLU(inplace=True)
    )
  )
  (B2): RFDB(
    (c1_d): Conv2d(50, 25, kernel_size=(1, 1), stride=(1, 1))
    (c1_r): Conv2d(50, 50, kernel_size=(3, 3), stride=(1, 1), padding=(1, 1))
    (c2_d): Conv2d(50, 25, kernel_size=(1, 1), stride=(1, 1))
    (c2_r): Conv2d(50, 50, kernel_size=(3, 3), stride=(1, 1), padding=(1, 1))
    (c3_d): Conv2d(50, 25, kernel_size=(1, 1), stride=(1, 1))
    (c3_r): Conv2d(50, 50, kernel_size=(3, 3), stride=(1, 1), padding=(1, 1))
    (c4): Conv2d(50, 25, kernel_size=(3, 3), stride=(1, 1), padding=(1, 1))
    (act): LeakyReLU(negative_slope=0.05, inplace=True)
    (c5): Conv2d(100, 50, kernel_size=(1, 1), stride=(1, 1))
    (esa): ESA(
      (conv1): Conv2d(50, 12, kernel_size=(1, 1), stride=(1, 1))
      (conv_f): Conv2d(12, 12, kernel_size=(1, 1), stride=(1, 1))
      (conv_max): Conv2d(12, 12, kernel_size=(3, 3), stride=(1, 1), padding=(1, 1))
      (conv2): Conv2d(12, 12, kernel_size=(3, 3), stride=(2, 2))
      (conv3): Conv2d(12, 12, kernel_size=(3, 3), stride=(1, 1), padding=(1, 1))
      (conv3_): Conv2d(12, 12, kernel_size=(3, 3), stride=(1, 1), padding=(1, 1))
      (conv4): Conv2d(12, 50, kernel_size=(1, 1), stride=(1, 1))
      (sigmoid): Sigmoid()
      (relu): ReLU(inplace=True)
    )
  )
  (B3): RFDB(
    (c1_d): Conv2d(50, 25, kernel_size=(1, 1), stride=(1, 1))
    (c1_r): Conv2d(50, 50, kernel_size=(3, 3), stride=(1, 1), padding=(1, 1))
    (c2_d): Conv2d(50, 25, kernel_size=(1, 1), stride=(1, 1))
    (c2_r): Conv2d(50, 50, kernel_size=(3, 3), stride=(1, 1), padding=(1, 1))
    (c3_d): Conv2d(50, 25, kernel_size=(1, 1), stride=(1, 1))
    (c3_r): Conv2d(50, 50, kernel_size=(3, 3), stride=(1, 1), padding=(1, 1))
    (c4): Conv2d(50, 25, kernel_size=(3, 3), stride=(1, 1), padding=(1, 1))
    (act): LeakyReLU(negative_slope=0.05, inplace=True)
    (c5): Conv2d(100, 50, kernel_size=(1, 1), stride=(1, 1))
    (esa): ESA(
      (conv1): Conv2d(50, 12, kernel_size=(1, 1), stride=(1, 1))
      (conv_f): Conv2d(12, 12, kernel_size=(1, 1), stride=(1, 1))
      (conv_max): Conv2d(12, 12, kernel_size=(3, 3), stride=(1, 1), padding=(1, 1))
      (conv2): Conv2d(12, 12, kernel_size=(3, 3), stride=(2, 2))
      (conv3): Conv2d(12, 12, kernel_size=(3, 3), stride=(1, 1), padding=(1, 1))
      (conv3_): Conv2d(12, 12, kernel_size=(3, 3), stride=(1, 1), padding=(1, 1))
      (conv4): Conv2d(12, 50, kernel_size=(1, 1), stride=(1, 1))
      (sigmoid): Sigmoid()
      (relu): ReLU(inplace=True)
    )
  )
  (B4): RFDB(
    (c1_d): Conv2d(50, 25, kernel_size=(1, 1), stride=(1, 1))
    (c1_r): Conv2d(50, 50, kernel_size=(3, 3), stride=(1, 1), padding=(1, 1))
    (c2_d): Conv2d(50, 25, kernel_size=(1, 1), stride=(1, 1))
    (c2_r): Conv2d(50, 50, kernel_size=(3, 3), stride=(1, 1), padding=(1, 1))
    (c3_d): Conv2d(50, 25, kernel_size=(1, 1), stride=(1, 1))
    (c3_r): Conv2d(50, 50, kernel_size=(3, 3), stride=(1, 1), padding=(1, 1))
    (c4): Conv2d(50, 25, kernel_size=(3, 3), stride=(1, 1), padding=(1, 1))
    (act): LeakyReLU(negative_slope=0.05, inplace=True)
    (c5): Conv2d(100, 50, kernel_size=(1, 1), stride=(1, 1))
    (esa): ESA(
      (conv1): Conv2d(50, 12, kernel_size=(1, 1), stride=(1, 1))
      (conv_f): Conv2d(12, 12, kernel_size=(1, 1), stride=(1, 1))
      (conv_max): Conv2d(12, 12, kernel_size=(3, 3), stride=(1, 1), padding=(1, 1))
      (conv2): Conv2d(12, 12, kernel_size=(3, 3), stride=(2, 2))
      (conv3): Conv2d(12, 12, kernel_size=(3, 3), stride=(1, 1), padding=(1, 1))
      (conv3_): Conv2d(12, 12, kernel_size=(3, 3), stride=(1, 1), padding=(1, 1))
      (conv4): Conv2d(12, 50, kernel_size=(1, 1), stride=(1, 1))
      (sigmoid): Sigmoid()
      (relu): ReLU(inplace=True)
    )
  )
  (c): Sequential(
    (0): Conv2d(200, 50, kernel_size=(1, 1), stride=(1, 1))
    (1): LeakyReLU(negative_slope=0.05, inplace=True)
  )
  (LR_conv): Conv2d(50, 50, kernel_size=(3, 3), stride=(1, 1), padding=(1, 1))
  (upsampler): Sequential(
    (0): Conv2d(50, 48, kernel_size=(3, 3), stride=(1, 1), padding=(1, 1))
    (1): PixelShuffle(upscale_factor=4)
  )
)
[Epoch 1]	Learning rate: 1.00e-4
[1600/16000]	[L1: 42.3724]	10.7+29.0s
[3200/16000]	[L1: 30.5797]	6.3+0.6s
[4800/16000]	[L1: 25.5481]	5.5+0.5s
[6400/16000]	[L1: 22.4929]	5.0+0.5s
[8000/16000]	[L1: 20.2692]	5.3+0.7s
[9600/16000]	[L1: 18.7272]	5.2+0.5s
[11200/16000]	[L1: 17.4703]	5.2+0.5s
[12800/16000]	[L1: 16.5002]	5.4+0.7s
[14400/16000]	[L1: 15.7380]	4.7+0.4s
[16000/16000]	[L1: 15.0665]	4.3+0.5s

Evaluation:
RFDN(
  (fea_conv): Conv2d(3, 50, kernel_size=(3, 3), stride=(1, 1), padding=(1, 1))
  (B1): RFDB(
    (c1_d): Conv2d(50, 25, kernel_size=(1, 1), stride=(1, 1))
    (c1_r): Conv2d(50, 50, kernel_size=(3, 3), stride=(1, 1), padding=(1, 1))
    (c2_d): Conv2d(50, 25, kernel_size=(1, 1), stride=(1, 1))
    (c2_r): Conv2d(50, 50, kernel_size=(3, 3), stride=(1, 1), padding=(1, 1))
    (c3_d): Conv2d(50, 25, kernel_size=(1, 1), stride=(1, 1))
    (c3_r): Conv2d(50, 50, kernel_size=(3, 3), stride=(1, 1), padding=(1, 1))
    (c4): Conv2d(50, 25, kernel_size=(3, 3), stride=(1, 1), padding=(1, 1))
    (act): LeakyReLU(negative_slope=0.05, inplace=True)
    (c5): Conv2d(100, 50, kernel_size=(1, 1), stride=(1, 1))
    (esa): ESA(
      (conv1): Conv2d(50, 12, kernel_size=(1, 1), stride=(1, 1))
      (conv_f): Conv2d(12, 12, kernel_size=(1, 1), stride=(1, 1))
      (conv_max): Conv2d(12, 12, kernel_size=(3, 3), stride=(1, 1), padding=(1, 1))
      (conv2): Conv2d(12, 12, kernel_size=(3, 3), stride=(2, 2))
      (conv3): Conv2d(12, 12, kernel_size=(3, 3), stride=(1, 1), padding=(1, 1))
      (conv3_): Conv2d(12, 12, kernel_size=(3, 3), stride=(1, 1), padding=(1, 1))
      (conv4): Conv2d(12, 50, kernel_size=(1, 1), stride=(1, 1))
      (sigmoid): Sigmoid()
      (relu): ReLU(inplace=True)
    )
  )
  (B2): RFDB(
    (c1_d): Conv2d(50, 25, kernel_size=(1, 1), stride=(1, 1))
    (c1_r): Conv2d(50, 50, kernel_size=(3, 3), stride=(1, 1), padding=(1, 1))
    (c2_d): Conv2d(50, 25, kernel_size=(1, 1), stride=(1, 1))
    (c2_r): Conv2d(50, 50, kernel_size=(3, 3), stride=(1, 1), padding=(1, 1))
    (c3_d): Conv2d(50, 25, kernel_size=(1, 1), stride=(1, 1))
    (c3_r): Conv2d(50, 50, kernel_size=(3, 3), stride=(1, 1), padding=(1, 1))
    (c4): Conv2d(50, 25, kernel_size=(3, 3), stride=(1, 1), padding=(1, 1))
    (act): LeakyReLU(negative_slope=0.05, inplace=True)
    (c5): Conv2d(100, 50, kernel_size=(1, 1), stride=(1, 1))
    (esa): ESA(
      (conv1): Conv2d(50, 12, kernel_size=(1, 1), stride=(1, 1))
      (conv_f): Conv2d(12, 12, kernel_size=(1, 1), stride=(1, 1))
      (conv_max): Conv2d(12, 12, kernel_size=(3, 3), stride=(1, 1), padding=(1, 1))
      (conv2): Conv2d(12, 12, kernel_size=(3, 3), stride=(2, 2))
      (conv3): Conv2d(12, 12, kernel_size=(3, 3), stride=(1, 1), padding=(1, 1))
      (conv3_): Conv2d(12, 12, kernel_size=(3, 3), stride=(1, 1), padding=(1, 1))
      (conv4): Conv2d(12, 50, kernel_size=(1, 1), stride=(1, 1))
      (sigmoid): Sigmoid()
      (relu): ReLU(inplace=True)
    )
  )
  (B3): RFDB(
    (c1_d): Conv2d(50, 25, kernel_size=(1, 1), stride=(1, 1))
    (c1_r): Conv2d(50, 50, kernel_size=(3, 3), stride=(1, 1), padding=(1, 1))
    (c2_d): Conv2d(50, 25, kernel_size=(1, 1), stride=(1, 1))
    (c2_r): Conv2d(50, 50, kernel_size=(3, 3), stride=(1, 1), padding=(1, 1))
    (c3_d): Conv2d(50, 25, kernel_size=(1, 1), stride=(1, 1))
    (c3_r): Conv2d(50, 50, kernel_size=(3, 3), stride=(1, 1), padding=(1, 1))
    (c4): Conv2d(50, 25, kernel_size=(3, 3), stride=(1, 1), padding=(1, 1))
    (act): LeakyReLU(negative_slope=0.05, inplace=True)
    (c5): Conv2d(100, 50, kernel_size=(1, 1), stride=(1, 1))
    (esa): ESA(
      (conv1): Conv2d(50, 12, kernel_size=(1, 1), stride=(1, 1))
      (conv_f): Conv2d(12, 12, kernel_size=(1, 1), stride=(1, 1))
      (conv_max): Conv2d(12, 12, kernel_size=(3, 3), stride=(1, 1), padding=(1, 1))
      (conv2): Conv2d(12, 12, kernel_size=(3, 3), stride=(2, 2))
      (conv3): Conv2d(12, 12, kernel_size=(3, 3), stride=(1, 1), padding=(1, 1))
      (conv3_): Conv2d(12, 12, kernel_size=(3, 3), stride=(1, 1), padding=(1, 1))
      (conv4): Conv2d(12, 50, kernel_size=(1, 1), stride=(1, 1))
      (sigmoid): Sigmoid()
      (relu): ReLU(inplace=True)
    )
  )
  (B4): RFDB(
    (c1_d): Conv2d(50, 25, kernel_size=(1, 1), stride=(1, 1))
    (c1_r): Conv2d(50, 50, kernel_size=(3, 3), stride=(1, 1), padding=(1, 1))
    (c2_d): Conv2d(50, 25, kernel_size=(1, 1), stride=(1, 1))
    (c2_r): Conv2d(50, 50, kernel_size=(3, 3), stride=(1, 1), padding=(1, 1))
    (c3_d): Conv2d(50, 25, kernel_size=(1, 1), stride=(1, 1))
    (c3_r): Conv2d(50, 50, kernel_size=(3, 3), stride=(1, 1), padding=(1, 1))
    (c4): Conv2d(50, 25, kernel_size=(3, 3), stride=(1, 1), padding=(1, 1))
    (act): LeakyReLU(negative_slope=0.05, inplace=True)
    (c5): Conv2d(100, 50, kernel_size=(1, 1), stride=(1, 1))
    (esa): ESA(
      (conv1): Conv2d(50, 12, kernel_size=(1, 1), stride=(1, 1))
      (conv_f): Conv2d(12, 12, kernel_size=(1, 1), stride=(1, 1))
      (conv_max): Conv2d(12, 12, kernel_size=(3, 3), stride=(1, 1), padding=(1, 1))
      (conv2): Conv2d(12, 12, kernel_size=(3, 3), stride=(2, 2))
      (conv3): Conv2d(12, 12, kernel_size=(3, 3), stride=(1, 1), padding=(1, 1))
      (conv3_): Conv2d(12, 12, kernel_size=(3, 3), stride=(1, 1), padding=(1, 1))
      (conv4): Conv2d(12, 50, kernel_size=(1, 1), stride=(1, 1))
      (sigmoid): Sigmoid()
      (relu): ReLU(inplace=True)
    )
  )
  (c): Sequential(
    (0): Conv2d(200, 50, kernel_size=(1, 1), stride=(1, 1))
    (1): LeakyReLU(negative_slope=0.05, inplace=True)
  )
  (LR_conv): Conv2d(50, 50, kernel_size=(3, 3), stride=(1, 1), padding=(1, 1))
  (upsampler): Sequential(
    (0): Conv2d(50, 48, kernel_size=(3, 3), stride=(1, 1), padding=(1, 1))
    (1): PixelShuffle(upscale_factor=4)
  )
)
[Epoch 1]	Learning rate: 1.00e-4
[1600/16000]	[L1: 42.3724]	9.8+12.8s
[3200/16000]	[L1: 30.5799]	5.0+0.9s
[4800/16000]	[L1: 25.5265]	5.2+0.8s
[6400/16000]	[L1: 22.4430]	5.5+0.9s
[8000/16000]	[L1: 20.2212]	4.4+0.4s
[9600/16000]	[L1: 18.6646]	4.1+0.4s
[11200/16000]	[L1: 17.4241]	4.4+0.5s
[12800/16000]	[L1: 16.4651]	4.6+0.5s
[14400/16000]	[L1: 15.7021]	4.2+0.5s
[16000/16000]	[L1: 15.0332]	4.1+0.6s

Evaluation:
[DIV2K x4]	PSNR: nan (Best: nan @epoch 1)
Forward: 2.56s

Saving...
Total: 3.16s

[Epoch 2]	Learning rate: 1.00e-4
[1600/16000]	[L1: 8.9436]	4.0+9.6s
[3200/16000]	[L1: 9.0192]	3.7+0.5s
RFDN(
  (fea_conv): Conv2d(3, 50, kernel_size=(3, 3), stride=(1, 1), padding=(1, 1))
  (B1): RFDB(
    (c1_d): Conv2d(50, 25, kernel_size=(1, 1), stride=(1, 1))
    (c1_r): Conv2d(50, 50, kernel_size=(3, 3), stride=(1, 1), padding=(1, 1))
    (c2_d): Conv2d(50, 25, kernel_size=(1, 1), stride=(1, 1))
    (c2_r): Conv2d(50, 50, kernel_size=(3, 3), stride=(1, 1), padding=(1, 1))
    (c3_d): Conv2d(50, 25, kernel_size=(1, 1), stride=(1, 1))
    (c3_r): Conv2d(50, 50, kernel_size=(3, 3), stride=(1, 1), padding=(1, 1))
    (c4): Conv2d(50, 25, kernel_size=(3, 3), stride=(1, 1), padding=(1, 1))
    (act): LeakyReLU(negative_slope=0.05, inplace=True)
    (c5): Conv2d(100, 50, kernel_size=(1, 1), stride=(1, 1))
    (esa): ESA(
      (conv1): Conv2d(50, 12, kernel_size=(1, 1), stride=(1, 1))
      (conv_f): Conv2d(12, 12, kernel_size=(1, 1), stride=(1, 1))
      (conv_max): Conv2d(12, 12, kernel_size=(3, 3), stride=(1, 1), padding=(1, 1))
      (conv2): Conv2d(12, 12, kernel_size=(3, 3), stride=(2, 2))
      (conv3): Conv2d(12, 12, kernel_size=(3, 3), stride=(1, 1), padding=(1, 1))
      (conv3_): Conv2d(12, 12, kernel_size=(3, 3), stride=(1, 1), padding=(1, 1))
      (conv4): Conv2d(12, 50, kernel_size=(1, 1), stride=(1, 1))
      (sigmoid): Sigmoid()
      (relu): ReLU(inplace=True)
    )
  )
  (B2): RFDB(
    (c1_d): Conv2d(50, 25, kernel_size=(1, 1), stride=(1, 1))
    (c1_r): Conv2d(50, 50, kernel_size=(3, 3), stride=(1, 1), padding=(1, 1))
    (c2_d): Conv2d(50, 25, kernel_size=(1, 1), stride=(1, 1))
    (c2_r): Conv2d(50, 50, kernel_size=(3, 3), stride=(1, 1), padding=(1, 1))
    (c3_d): Conv2d(50, 25, kernel_size=(1, 1), stride=(1, 1))
    (c3_r): Conv2d(50, 50, kernel_size=(3, 3), stride=(1, 1), padding=(1, 1))
    (c4): Conv2d(50, 25, kernel_size=(3, 3), stride=(1, 1), padding=(1, 1))
    (act): LeakyReLU(negative_slope=0.05, inplace=True)
    (c5): Conv2d(100, 50, kernel_size=(1, 1), stride=(1, 1))
    (esa): ESA(
      (conv1): Conv2d(50, 12, kernel_size=(1, 1), stride=(1, 1))
      (conv_f): Conv2d(12, 12, kernel_size=(1, 1), stride=(1, 1))
      (conv_max): Conv2d(12, 12, kernel_size=(3, 3), stride=(1, 1), padding=(1, 1))
      (conv2): Conv2d(12, 12, kernel_size=(3, 3), stride=(2, 2))
      (conv3): Conv2d(12, 12, kernel_size=(3, 3), stride=(1, 1), padding=(1, 1))
      (conv3_): Conv2d(12, 12, kernel_size=(3, 3), stride=(1, 1), padding=(1, 1))
      (conv4): Conv2d(12, 50, kernel_size=(1, 1), stride=(1, 1))
      (sigmoid): Sigmoid()
      (relu): ReLU(inplace=True)
    )
  )
  (B3): RFDB(
    (c1_d): Conv2d(50, 25, kernel_size=(1, 1), stride=(1, 1))
    (c1_r): Conv2d(50, 50, kernel_size=(3, 3), stride=(1, 1), padding=(1, 1))
    (c2_d): Conv2d(50, 25, kernel_size=(1, 1), stride=(1, 1))
    (c2_r): Conv2d(50, 50, kernel_size=(3, 3), stride=(1, 1), padding=(1, 1))
    (c3_d): Conv2d(50, 25, kernel_size=(1, 1), stride=(1, 1))
    (c3_r): Conv2d(50, 50, kernel_size=(3, 3), stride=(1, 1), padding=(1, 1))
    (c4): Conv2d(50, 25, kernel_size=(3, 3), stride=(1, 1), padding=(1, 1))
    (act): LeakyReLU(negative_slope=0.05, inplace=True)
    (c5): Conv2d(100, 50, kernel_size=(1, 1), stride=(1, 1))
    (esa): ESA(
      (conv1): Conv2d(50, 12, kernel_size=(1, 1), stride=(1, 1))
      (conv_f): Conv2d(12, 12, kernel_size=(1, 1), stride=(1, 1))
      (conv_max): Conv2d(12, 12, kernel_size=(3, 3), stride=(1, 1), padding=(1, 1))
      (conv2): Conv2d(12, 12, kernel_size=(3, 3), stride=(2, 2))
      (conv3): Conv2d(12, 12, kernel_size=(3, 3), stride=(1, 1), padding=(1, 1))
      (conv3_): Conv2d(12, 12, kernel_size=(3, 3), stride=(1, 1), padding=(1, 1))
      (conv4): Conv2d(12, 50, kernel_size=(1, 1), stride=(1, 1))
      (sigmoid): Sigmoid()
      (relu): ReLU(inplace=True)
    )
  )
  (B4): RFDB(
    (c1_d): Conv2d(50, 25, kernel_size=(1, 1), stride=(1, 1))
    (c1_r): Conv2d(50, 50, kernel_size=(3, 3), stride=(1, 1), padding=(1, 1))
    (c2_d): Conv2d(50, 25, kernel_size=(1, 1), stride=(1, 1))
    (c2_r): Conv2d(50, 50, kernel_size=(3, 3), stride=(1, 1), padding=(1, 1))
    (c3_d): Conv2d(50, 25, kernel_size=(1, 1), stride=(1, 1))
    (c3_r): Conv2d(50, 50, kernel_size=(3, 3), stride=(1, 1), padding=(1, 1))
    (c4): Conv2d(50, 25, kernel_size=(3, 3), stride=(1, 1), padding=(1, 1))
    (act): LeakyReLU(negative_slope=0.05, inplace=True)
    (c5): Conv2d(100, 50, kernel_size=(1, 1), stride=(1, 1))
    (esa): ESA(
      (conv1): Conv2d(50, 12, kernel_size=(1, 1), stride=(1, 1))
      (conv_f): Conv2d(12, 12, kernel_size=(1, 1), stride=(1, 1))
      (conv_max): Conv2d(12, 12, kernel_size=(3, 3), stride=(1, 1), padding=(1, 1))
      (conv2): Conv2d(12, 12, kernel_size=(3, 3), stride=(2, 2))
      (conv3): Conv2d(12, 12, kernel_size=(3, 3), stride=(1, 1), padding=(1, 1))
      (conv3_): Conv2d(12, 12, kernel_size=(3, 3), stride=(1, 1), padding=(1, 1))
      (conv4): Conv2d(12, 50, kernel_size=(1, 1), stride=(1, 1))
      (sigmoid): Sigmoid()
      (relu): ReLU(inplace=True)
    )
  )
  (c): Sequential(
    (0): Conv2d(200, 50, kernel_size=(1, 1), stride=(1, 1))
    (1): LeakyReLU(negative_slope=0.05, inplace=True)
  )
  (LR_conv): Conv2d(50, 50, kernel_size=(3, 3), stride=(1, 1), padding=(1, 1))
  (upsampler): Sequential(
    (0): Conv2d(50, 48, kernel_size=(3, 3), stride=(1, 1), padding=(1, 1))
    (1): PixelShuffle(upscale_factor=4)
  )
)
[Epoch 1]	Learning rate: 1.00e-4
[1600/15800]	[L1: 43.4532]	8.2+10.4s
[3200/15800]	[L1: 31.1657]	3.5+0.6s
[4800/15800]	[L1: 26.0039]	4.3+0.5s
[6400/15800]	[L1: 22.7850]	4.3+0.4s
[8000/15800]	[L1: 20.5200]	3.9+0.5s
[9600/15800]	[L1: 18.8521]	3.6+0.5s
[11200/15800]	[L1: 17.5596]	3.7+0.5s
[12800/15800]	[L1: 16.5348]	3.8+0.4s
…
[4800/15800]	[L1: 8.9492]	5.2+1.1s
[6400/15800]	[L1: 8.8708]	4.9+0.9s
[8000/15800]	[L1: 8.8376]	4.0+0.5s
[9600/15800]	[L1: 8.7588]	4.3+0.5s
[11200/15800]	[L1: 8.6898]	3.9+0.5s
[12800/15800]	[L1: 8.6468]	3.7+0.5s
[14400/15800]	[L1: 8.6146]	3.9+0.5s

Evaluation:
[DIV2K x4]	PSNR: 27.436 (Best: 27.436 @epoch 2)
Forward: 4.94s

Saving...
Total: 5.21s

[Epoch 3]	Learning rate: 1.00e-4
[1600/15800]	[L1: 7.9794]	4.0+12.7s
[3200/15800]	[L1: 8.0871]	3.7+0.5s
[4800/15800]	[L1: 8.1103]	4.2+0.4s
[6400/15800]	[L1: 8.0848]	4.0+0.4s
[8000/15800]	[L1: 8.1300]	3.7+0.4s
[9600/15800]	[L1: 8.1210]	3.9+0.4s
RFDN(
  (fea_conv): Conv2d(3, 50, kernel_size=(3, 3), stride=(1, 1), padding=(1, 1))
  (B1): RFDB(
    (c1_d): Conv2d(50, 25, kernel_size=(1, 1), stride=(1, 1))
    (c1_rfdb): Residual(
      (conv1): Conv2d(50, 50, kernel_size=(3, 3), stride=(1, 1), padding=(1, 1), groups=50)
      (bn1): BatchNorm2d(50, eps=1e-05, momentum=0.1, affine=True, track_running_stats=True)
      (relu): ReLU()
      (conv2): Conv2d(50, 50, kernel_size=(3, 3), stride=(1, 1))
    )
    (c2_d): Conv2d(50, 25, kernel_size=(1, 1), stride=(1, 1))
    (c2_rfdb): Residual(
      (conv1): Conv2d(50, 50, kernel_size=(3, 3), stride=(1, 1), padding=(1, 1), groups=50)
      (bn1): BatchNorm2d(50, eps=1e-05, momentum=0.1, affine=True, track_running_stats=True)
      (relu): ReLU()
      (conv2): Conv2d(50, 50, kernel_size=(3, 3), stride=(1, 1))
    )
    (c3_d): Conv2d(50, 25, kernel_size=(1, 1), stride=(1, 1))
    (c3_rfdb): Residual(
      (conv1): Conv2d(50, 50, kernel_size=(3, 3), stride=(1, 1), padding=(1, 1), groups=50)
      (bn1): BatchNorm2d(50, eps=1e-05, momentum=0.1, affine=True, track_running_stats=True)
      (relu): ReLU()
      (conv2): Conv2d(50, 50, kernel_size=(3, 3), stride=(1, 1))
    )
    (c4): Conv2d(50, 25, kernel_size=(3, 3), stride=(1, 1), padding=(1, 1))
    (act): LeakyReLU(negative_slope=0.05, inplace=True)
    (c5): Conv2d(100, 50, kernel_size=(1, 1), stride=(1, 1))
    (esa): ESA(
      (conv1): Conv2d(50, 12, kernel_size=(1, 1), stride=(1, 1))
      (conv_f): Conv2d(12, 12, kernel_size=(1, 1), stride=(1, 1))
      (conv_max): Conv2d(12, 12, kernel_size=(3, 3), stride=(1, 1), padding=(1, 1))
      (conv_un): PixelUnshuffle()
      (con_): Conv2d(48, 12, kernel_size=(1, 1), stride=(1, 1), padding=(1, 1))
      (conv_sh): PixelShuffle(upscale_factor=2)
      (conv4): Conv2d(12, 50, kernel_size=(1, 1), stride=(1, 1))
      (sigmoid): Sigmoid()
      (relu): ReLU(inplace=True)
    )
  )
  (B2): RFDB(
    (c1_d): Conv2d(50, 25, kernel_size=(1, 1), stride=(1, 1))
    (c1_rfdb): Residual(
      (conv1): Conv2d(50, 50, kernel_size=(3, 3), stride=(1, 1), padding=(1, 1), groups=50)
      (bn1): BatchNorm2d(50, eps=1e-05, momentum=0.1, affine=True, track_running_stats=True)
      (relu): ReLU()
      (conv2): Conv2d(50, 50, kernel_size=(3, 3), stride=(1, 1))
    )
    (c2_d): Conv2d(50, 25, kernel_size=(1, 1), stride=(1, 1))
    (c2_rfdb): Residual(
      (conv1): Conv2d(50, 50, kernel_size=(3, 3), stride=(1, 1), padding=(1, 1), groups=50)
      (bn1): BatchNorm2d(50, eps=1e-05, momentum=0.1, affine=True, track_running_stats=True)
      (relu): ReLU()
      (conv2): Conv2d(50, 50, kernel_size=(3, 3), stride=(1, 1))
    )
    (c3_d): Conv2d(50, 25, kernel_size=(1, 1), stride=(1, 1))
    (c3_rfdb): Residual(
      (conv1): Conv2d(50, 50, kernel_size=(3, 3), stride=(1, 1), padding=(1, 1), groups=50)
      (bn1): BatchNorm2d(50, eps=1e-05, momentum=0.1, affine=True, track_running_stats=True)
      (relu): ReLU()
      (conv2): Conv2d(50, 50, kernel_size=(3, 3), stride=(1, 1))
    )
    (c4): Conv2d(50, 25, kernel_size=(3, 3), stride=(1, 1), padding=(1, 1))
    (act): LeakyReLU(negative_slope=0.05, inplace=True)
    (c5): Conv2d(100, 50, kernel_size=(1, 1), stride=(1, 1))
    (esa): ESA(
      (conv1): Conv2d(50, 12, kernel_size=(1, 1), stride=(1, 1))
      (conv_f): Conv2d(12, 12, kernel_size=(1, 1), stride=(1, 1))
      (conv_max): Conv2d(12, 12, kernel_size=(3, 3), stride=(1, 1), padding=(1, 1))
      (conv_un): PixelUnshuffle()
      (con_): Conv2d(48, 12, kernel_size=(1, 1), stride=(1, 1), padding=(1, 1))
      (conv_sh): PixelShuffle(upscale_factor=2)
      (conv4): Conv2d(12, 50, kernel_size=(1, 1), stride=(1, 1))
      (sigmoid): Sigmoid()
      (relu): ReLU(inplace=True)
    )
  )
  (B3): RFDB(
    (c1_d): Conv2d(50, 25, kernel_size=(1, 1), stride=(1, 1))
    (c1_rfdb): Residual(
      (conv1): Conv2d(50, 50, kernel_size=(3, 3), stride=(1, 1), padding=(1, 1), groups=50)
      (bn1): BatchNorm2d(50, eps=1e-05, momentum=0.1, affine=True, track_running_stats=True)
      (relu): ReLU()
      (conv2): Conv2d(50, 50, kernel_size=(3, 3), stride=(1, 1))
    )
    (c2_d): Conv2d(50, 25, kernel_size=(1, 1), stride=(1, 1))
    (c2_rfdb): Residual(
      (conv1): Conv2d(50, 50, kernel_size=(3, 3), stride=(1, 1), padding=(1, 1), groups=50)
      (bn1): BatchNorm2d(50, eps=1e-05, momentum=0.1, affine=True, track_running_stats=True)
      (relu): ReLU()
      (conv2): Conv2d(50, 50, kernel_size=(3, 3), stride=(1, 1))
    )
    (c3_d): Conv2d(50, 25, kernel_size=(1, 1), stride=(1, 1))
    (c3_rfdb): Residual(
      (conv1): Conv2d(50, 50, kernel_size=(3, 3), stride=(1, 1), padding=(1, 1), groups=50)
      (bn1): BatchNorm2d(50, eps=1e-05, momentum=0.1, affine=True, track_running_stats=True)
      (relu): ReLU()
      (conv2): Conv2d(50, 50, kernel_size=(3, 3), stride=(1, 1))
    )
    (c4): Conv2d(50, 25, kernel_size=(3, 3), stride=(1, 1), padding=(1, 1))
    (act): LeakyReLU(negative_slope=0.05, inplace=True)
    (c5): Conv2d(100, 50, kernel_size=(1, 1), stride=(1, 1))
    (esa): ESA(
      (conv1): Conv2d(50, 12, kernel_size=(1, 1), stride=(1, 1))
      (conv_f): Conv2d(12, 12, kernel_size=(1, 1), stride=(1, 1))
      (conv_max): Conv2d(12, 12, kernel_size=(3, 3), stride=(1, 1), padding=(1, 1))
      (conv_un): PixelUnshuffle()
      (con_): Conv2d(48, 12, kernel_size=(1, 1), stride=(1, 1), padding=(1, 1))
      (conv_sh): PixelShuffle(upscale_factor=2)
      (conv4): Conv2d(12, 50, kernel_size=(1, 1), stride=(1, 1))
      (sigmoid): Sigmoid()
      (relu): ReLU(inplace=True)
    )
  )
  (B4): RFDB(
    (c1_d): Conv2d(50, 25, kernel_size=(1, 1), stride=(1, 1))
    (c1_rfdb): Residual(
      (conv1): Conv2d(50, 50, kernel_size=(3, 3), stride=(1, 1), padding=(1, 1), groups=50)
      (bn1): BatchNorm2d(50, eps=1e-05, momentum=0.1, affine=True, track_running_stats=True)
      (relu): ReLU()
      (conv2): Conv2d(50, 50, kernel_size=(3, 3), stride=(1, 1))
    )
    (c2_d): Conv2d(50, 25, kernel_size=(1, 1), stride=(1, 1))
    (c2_rfdb): Residual(
      (conv1): Conv2d(50, 50, kernel_size=(3, 3), stride=(1, 1), padding=(1, 1), groups=50)
      (bn1): BatchNorm2d(50, eps=1e-05, momentum=0.1, affine=True, track_running_stats=True)
      (relu): ReLU()
      (conv2): Conv2d(50, 50, kernel_size=(3, 3), stride=(1, 1))
    )
    (c3_d): Conv2d(50, 25, kernel_size=(1, 1), stride=(1, 1))
    (c3_rfdb): Residual(
      (conv1): Conv2d(50, 50, kernel_size=(3, 3), stride=(1, 1), padding=(1, 1), groups=50)
      (bn1): BatchNorm2d(50, eps=1e-05, momentum=0.1, affine=True, track_running_stats=True)
      (relu): ReLU()
      (conv2): Conv2d(50, 50, kernel_size=(3, 3), stride=(1, 1))
    )
    (c4): Conv2d(50, 25, kernel_size=(3, 3), stride=(1, 1), padding=(1, 1))
    (act): LeakyReLU(negative_slope=0.05, inplace=True)
    (c5): Conv2d(100, 50, kernel_size=(1, 1), stride=(1, 1))
    (esa): ESA(
      (conv1): Conv2d(50, 12, kernel_size=(1, 1), stride=(1, 1))
      (conv_f): Conv2d(12, 12, kernel_size=(1, 1), stride=(1, 1))
      (conv_max): Conv2d(12, 12, kernel_size=(3, 3), stride=(1, 1), padding=(1, 1))
      (conv_un): PixelUnshuffle()
      (con_): Conv2d(48, 12, kernel_size=(1, 1), stride=(1, 1), padding=(1, 1))
      (conv_sh): PixelShuffle(upscale_factor=2)
      (conv4): Conv2d(12, 50, kernel_size=(1, 1), stride=(1, 1))
      (sigmoid): Sigmoid()
      (relu): ReLU(inplace=True)
    )
  )
  (c): Sequential(
    (0): Conv2d(200, 50, kernel_size=(1, 1), stride=(1, 1))
    (1): LeakyReLU(negative_slope=0.05, inplace=True)
  )
  (LR_conv): Conv2d(50, 50, kernel_size=(3, 3), stride=(1, 1), padding=(1, 1))
  (upsampler): Sequential(
    (0): Conv2d(50, 48, kernel_size=(3, 3), stride=(1, 1), padding=(1, 1))
    (1): PixelShuffle(upscale_factor=4)
  )
)
[Epoch 1]	Learning rate: 1.00e-4
RFDN(
  (fea_conv): Conv2d(3, 50, kernel_size=(3, 3), stride=(1, 1), padding=(1, 1))
  (B1): RFDB(
    (c1_d): Conv2d(50, 25, kernel_size=(1, 1), stride=(1, 1))
    (c1_rfdb): Residual(
      (conv1): Conv2d(50, 50, kernel_size=(3, 3), stride=(1, 1), padding=(1, 1), groups=50)
      (bn1): BatchNorm2d(50, eps=1e-05, momentum=0.1, affine=True, track_running_stats=True)
      (relu): ReLU()
      (conv2): Conv2d(50, 50, kernel_size=(3, 3), stride=(1, 1))
    )
    (c2_d): Conv2d(50, 25, kernel_size=(1, 1), stride=(1, 1))
    (c2_rfdb): Residual(
      (conv1): Conv2d(50, 50, kernel_size=(3, 3), stride=(1, 1), padding=(1, 1), groups=50)
      (bn1): BatchNorm2d(50, eps=1e-05, momentum=0.1, affine=True, track_running_stats=True)
      (relu): ReLU()
      (conv2): Conv2d(50, 50, kernel_size=(3, 3), stride=(1, 1))
    )
    (c3_d): Conv2d(50, 25, kernel_size=(1, 1), stride=(1, 1))
    (c3_rfdb): Residual(
      (conv1): Conv2d(50, 50, kernel_size=(3, 3), stride=(1, 1), padding=(1, 1), groups=50)
      (bn1): BatchNorm2d(50, eps=1e-05, momentum=0.1, affine=True, track_running_stats=True)
      (relu): ReLU()
      (conv2): Conv2d(50, 50, kernel_size=(3, 3), stride=(1, 1))
    )
    (c4): Conv2d(50, 25, kernel_size=(3, 3), stride=(1, 1), padding=(1, 1))
    (act): LeakyReLU(negative_slope=0.05, inplace=True)
    (c5): Conv2d(100, 50, kernel_size=(1, 1), stride=(1, 1))
    (esa): ESA(
      (conv1): Conv2d(50, 12, kernel_size=(1, 1), stride=(1, 1))
      (conv_f): Conv2d(12, 12, kernel_size=(1, 1), stride=(1, 1))
      (conv_max): Conv2d(12, 12, kernel_size=(3, 3), stride=(1, 1), padding=(1, 1))
      (conv_un): PixelUnshuffle()
      (con_): Conv2d(48, 12, kernel_size=(1, 1), stride=(1, 1), padding=(1, 1))
      (conv_sh): PixelShuffle(upscale_factor=2)
      (conv4): Conv2d(12, 50, kernel_size=(1, 1), stride=(1, 1))
      (sigmoid): Sigmoid()
      (relu): ReLU(inplace=True)
    )
  )
  (B2): RFDB(
    (c1_d): Conv2d(50, 25, kernel_size=(1, 1), stride=(1, 1))
    (c1_rfdb): Residual(
      (conv1): Conv2d(50, 50, kernel_size=(3, 3), stride=(1, 1), padding=(1, 1), groups=50)
      (bn1): BatchNorm2d(50, eps=1e-05, momentum=0.1, affine=True, track_running_stats=True)
      (relu): ReLU()
      (conv2): Conv2d(50, 50, kernel_size=(3, 3), stride=(1, 1))
    )
    (c2_d): Conv2d(50, 25, kernel_size=(1, 1), stride=(1, 1))
    (c2_rfdb): Residual(
      (conv1): Conv2d(50, 50, kernel_size=(3, 3), stride=(1, 1), padding=(1, 1), groups=50)
      (bn1): BatchNorm2d(50, eps=1e-05, momentum=0.1, affine=True, track_running_stats=True)
      (relu): ReLU()
      (conv2): Conv2d(50, 50, kernel_size=(3, 3), stride=(1, 1))
    )
    (c3_d): Conv2d(50, 25, kernel_size=(1, 1), stride=(1, 1))
    (c3_rfdb): Residual(
      (conv1): Conv2d(50, 50, kernel_size=(3, 3), stride=(1, 1), padding=(1, 1), groups=50)
      (bn1): BatchNorm2d(50, eps=1e-05, momentum=0.1, affine=True, track_running_stats=True)
      (relu): ReLU()
      (conv2): Conv2d(50, 50, kernel_size=(3, 3), stride=(1, 1))
    )
    (c4): Conv2d(50, 25, kernel_size=(3, 3), stride=(1, 1), padding=(1, 1))
    (act): LeakyReLU(negative_slope=0.05, inplace=True)
    (c5): Conv2d(100, 50, kernel_size=(1, 1), stride=(1, 1))
    (esa): ESA(
      (conv1): Conv2d(50, 12, kernel_size=(1, 1), stride=(1, 1))
      (conv_f): Conv2d(12, 12, kernel_size=(1, 1), stride=(1, 1))
      (conv_max): Conv2d(12, 12, kernel_size=(3, 3), stride=(1, 1), padding=(1, 1))
      (conv_un): PixelUnshuffle()
      (con_): Conv2d(48, 12, kernel_size=(1, 1), stride=(1, 1), padding=(1, 1))
      (conv_sh): PixelShuffle(upscale_factor=2)
      (conv4): Conv2d(12, 50, kernel_size=(1, 1), stride=(1, 1))
      (sigmoid): Sigmoid()
      (relu): ReLU(inplace=True)
    )
  )
  (B3): RFDB(
    (c1_d): Conv2d(50, 25, kernel_size=(1, 1), stride=(1, 1))
    (c1_rfdb): Residual(
      (conv1): Conv2d(50, 50, kernel_size=(3, 3), stride=(1, 1), padding=(1, 1), groups=50)
      (bn1): BatchNorm2d(50, eps=1e-05, momentum=0.1, affine=True, track_running_stats=True)
      (relu): ReLU()
      (conv2): Conv2d(50, 50, kernel_size=(3, 3), stride=(1, 1))
    )
    (c2_d): Conv2d(50, 25, kernel_size=(1, 1), stride=(1, 1))
    (c2_rfdb): Residual(
      (conv1): Conv2d(50, 50, kernel_size=(3, 3), stride=(1, 1), padding=(1, 1), groups=50)
      (bn1): BatchNorm2d(50, eps=1e-05, momentum=0.1, affine=True, track_running_stats=True)
      (relu): ReLU()
      (conv2): Conv2d(50, 50, kernel_size=(3, 3), stride=(1, 1))
    )
    (c3_d): Conv2d(50, 25, kernel_size=(1, 1), stride=(1, 1))
    (c3_rfdb): Residual(
      (conv1): Conv2d(50, 50, kernel_size=(3, 3), stride=(1, 1), padding=(1, 1), groups=50)
      (bn1): BatchNorm2d(50, eps=1e-05, momentum=0.1, affine=True, track_running_stats=True)
      (relu): ReLU()
      (conv2): Conv2d(50, 50, kernel_size=(3, 3), stride=(1, 1))
    )
    (c4): Conv2d(50, 25, kernel_size=(3, 3), stride=(1, 1), padding=(1, 1))
    (act): LeakyReLU(negative_slope=0.05, inplace=True)
    (c5): Conv2d(100, 50, kernel_size=(1, 1), stride=(1, 1))
    (esa): ESA(
      (conv1): Conv2d(50, 12, kernel_size=(1, 1), stride=(1, 1))
      (conv_f): Conv2d(12, 12, kernel_size=(1, 1), stride=(1, 1))
      (conv_max): Conv2d(12, 12, kernel_size=(3, 3), stride=(1, 1), padding=(1, 1))
      (conv_un): PixelUnshuffle()
      (con_): Conv2d(48, 12, kernel_size=(1, 1), stride=(1, 1), padding=(1, 1))
      (conv_sh): PixelShuffle(upscale_factor=2)
      (conv4): Conv2d(12, 50, kernel_size=(1, 1), stride=(1, 1))
      (sigmoid): Sigmoid()
      (relu): ReLU(inplace=True)
    )
  )
  (B4): RFDB(
    (c1_d): Conv2d(50, 25, kernel_size=(1, 1), stride=(1, 1))
    (c1_rfdb): Residual(
      (conv1): Conv2d(50, 50, kernel_size=(3, 3), stride=(1, 1), padding=(1, 1), groups=50)
      (bn1): BatchNorm2d(50, eps=1e-05, momentum=0.1, affine=True, track_running_stats=True)
      (relu): ReLU()
      (conv2): Conv2d(50, 50, kernel_size=(3, 3), stride=(1, 1))
    )
    (c2_d): Conv2d(50, 25, kernel_size=(1, 1), stride=(1, 1))
    (c2_rfdb): Residual(
      (conv1): Conv2d(50, 50, kernel_size=(3, 3), stride=(1, 1), padding=(1, 1), groups=50)
      (bn1): BatchNorm2d(50, eps=1e-05, momentum=0.1, affine=True, track_running_stats=True)
      (relu): ReLU()
      (conv2): Conv2d(50, 50, kernel_size=(3, 3), stride=(1, 1))
    )
    (c3_d): Conv2d(50, 25, kernel_size=(1, 1), stride=(1, 1))
    (c3_rfdb): Residual(
      (conv1): Conv2d(50, 50, kernel_size=(3, 3), stride=(1, 1), padding=(1, 1), groups=50)
      (bn1): BatchNorm2d(50, eps=1e-05, momentum=0.1, affine=True, track_running_stats=True)
      (relu): ReLU()
      (conv2): Conv2d(50, 50, kernel_size=(3, 3), stride=(1, 1))
    )
    (c4): Conv2d(50, 25, kernel_size=(3, 3), stride=(1, 1), padding=(1, 1))
    (act): LeakyReLU(negative_slope=0.05, inplace=True)
    (c5): Conv2d(100, 50, kernel_size=(1, 1), stride=(1, 1))
    (esa): ESA(
      (conv1): Conv2d(50, 12, kernel_size=(1, 1), stride=(1, 1))
      (conv_f): Conv2d(12, 12, kernel_size=(1, 1), stride=(1, 1))
      (conv_max): Conv2d(12, 12, kernel_size=(3, 3), stride=(1, 1), padding=(1, 1))
      (conv_un): PixelUnshuffle()
      (con_): Conv2d(48, 12, kernel_size=(1, 1), stride=(1, 1), padding=(1, 1))
      (conv_sh): PixelShuffle(upscale_factor=2)
      (conv4): Conv2d(12, 50, kernel_size=(1, 1), stride=(1, 1))
      (sigmoid): Sigmoid()
      (relu): ReLU(inplace=True)
    )
  )
  (c): Sequential(
    (0): Conv2d(200, 50, kernel_size=(1, 1), stride=(1, 1))
    (1): LeakyReLU(negative_slope=0.05, inplace=True)
  )
  (LR_conv): Conv2d(50, 50, kernel_size=(3, 3), stride=(1, 1), padding=(1, 1))
  (upsampler): Sequential(
    (0): Conv2d(50, 48, kernel_size=(3, 3), stride=(1, 1), padding=(1, 1))
    (1): PixelShuffle(upscale_factor=4)
  )
)
[Epoch 1]	Learning rate: 1.00e-4
RFDN(
  (fea_conv): Conv2d(3, 50, kernel_size=(3, 3), stride=(1, 1), padding=(1, 1))
  (B1): RFDB(
    (c1_d): Conv2d(50, 25, kernel_size=(1, 1), stride=(1, 1))
    (c1_rfdb): Residual(
      (conv1): Conv2d(50, 50, kernel_size=(3, 3), stride=(1, 1), padding=(1, 1), groups=50)
      (bn1): BatchNorm2d(50, eps=1e-05, momentum=0.1, affine=True, track_running_stats=True)
      (relu): ReLU()
      (conv2): Conv2d(50, 50, kernel_size=(3, 3), stride=(1, 1))
    )
    (c2_d): Conv2d(50, 25, kernel_size=(1, 1), stride=(1, 1))
    (c2_rfdb): Residual(
      (conv1): Conv2d(50, 50, kernel_size=(3, 3), stride=(1, 1), padding=(1, 1), groups=50)
      (bn1): BatchNorm2d(50, eps=1e-05, momentum=0.1, affine=True, track_running_stats=True)
      (relu): ReLU()
      (conv2): Conv2d(50, 50, kernel_size=(3, 3), stride=(1, 1))
    )
    (c3_d): Conv2d(50, 25, kernel_size=(1, 1), stride=(1, 1))
    (c3_rfdb): Residual(
      (conv1): Conv2d(50, 50, kernel_size=(3, 3), stride=(1, 1), padding=(1, 1), groups=50)
      (bn1): BatchNorm2d(50, eps=1e-05, momentum=0.1, affine=True, track_running_stats=True)
      (relu): ReLU()
      (conv2): Conv2d(50, 50, kernel_size=(3, 3), stride=(1, 1))
    )
    (c4): Conv2d(50, 25, kernel_size=(3, 3), stride=(1, 1), padding=(1, 1))
    (act): LeakyReLU(negative_slope=0.05, inplace=True)
    (c5): Conv2d(100, 50, kernel_size=(1, 1), stride=(1, 1))
    (esa): ESA(
      (conv1): Conv2d(50, 12, kernel_size=(1, 1), stride=(1, 1))
      (conv_f): Conv2d(12, 12, kernel_size=(1, 1), stride=(1, 1))
      (conv_max): Conv2d(12, 12, kernel_size=(3, 3), stride=(1, 1), padding=(1, 1))
      (conv_un): PixelUnshuffle()
      (con_): Conv2d(48, 12, kernel_size=(1, 1), stride=(1, 1), padding=(1, 1))
      (conv_sh): PixelShuffle(upscale_factor=2)
      (conv4): Conv2d(12, 50, kernel_size=(1, 1), stride=(1, 1))
      (sigmoid): Sigmoid()
      (relu): ReLU(inplace=True)
    )
  )
  (B2): RFDB(
    (c1_d): Conv2d(50, 25, kernel_size=(1, 1), stride=(1, 1))
    (c1_rfdb): Residual(
      (conv1): Conv2d(50, 50, kernel_size=(3, 3), stride=(1, 1), padding=(1, 1), groups=50)
      (bn1): BatchNorm2d(50, eps=1e-05, momentum=0.1, affine=True, track_running_stats=True)
      (relu): ReLU()
      (conv2): Conv2d(50, 50, kernel_size=(3, 3), stride=(1, 1))
    )
    (c2_d): Conv2d(50, 25, kernel_size=(1, 1), stride=(1, 1))
    (c2_rfdb): Residual(
      (conv1): Conv2d(50, 50, kernel_size=(3, 3), stride=(1, 1), padding=(1, 1), groups=50)
      (bn1): BatchNorm2d(50, eps=1e-05, momentum=0.1, affine=True, track_running_stats=True)
      (relu): ReLU()
      (conv2): Conv2d(50, 50, kernel_size=(3, 3), stride=(1, 1))
    )
    (c3_d): Conv2d(50, 25, kernel_size=(1, 1), stride=(1, 1))
    (c3_rfdb): Residual(
      (conv1): Conv2d(50, 50, kernel_size=(3, 3), stride=(1, 1), padding=(1, 1), groups=50)
      (bn1): BatchNorm2d(50, eps=1e-05, momentum=0.1, affine=True, track_running_stats=True)
      (relu): ReLU()
      (conv2): Conv2d(50, 50, kernel_size=(3, 3), stride=(1, 1))
    )
    (c4): Conv2d(50, 25, kernel_size=(3, 3), stride=(1, 1), padding=(1, 1))
    (act): LeakyReLU(negative_slope=0.05, inplace=True)
    (c5): Conv2d(100, 50, kernel_size=(1, 1), stride=(1, 1))
    (esa): ESA(
      (conv1): Conv2d(50, 12, kernel_size=(1, 1), stride=(1, 1))
      (conv_f): Conv2d(12, 12, kernel_size=(1, 1), stride=(1, 1))
      (conv_max): Conv2d(12, 12, kernel_size=(3, 3), stride=(1, 1), padding=(1, 1))
      (conv_un): PixelUnshuffle()
      (con_): Conv2d(48, 12, kernel_size=(1, 1), stride=(1, 1), padding=(1, 1))
      (conv_sh): PixelShuffle(upscale_factor=2)
      (conv4): Conv2d(12, 50, kernel_size=(1, 1), stride=(1, 1))
      (sigmoid): Sigmoid()
      (relu): ReLU(inplace=True)
    )
  )
  (B3): RFDB(
    (c1_d): Conv2d(50, 25, kernel_size=(1, 1), stride=(1, 1))
    (c1_rfdb): Residual(
      (conv1): Conv2d(50, 50, kernel_size=(3, 3), stride=(1, 1), padding=(1, 1), groups=50)
      (bn1): BatchNorm2d(50, eps=1e-05, momentum=0.1, affine=True, track_running_stats=True)
      (relu): ReLU()
      (conv2): Conv2d(50, 50, kernel_size=(3, 3), stride=(1, 1))
    )
    (c2_d): Conv2d(50, 25, kernel_size=(1, 1), stride=(1, 1))
    (c2_rfdb): Residual(
      (conv1): Conv2d(50, 50, kernel_size=(3, 3), stride=(1, 1), padding=(1, 1), groups=50)
      (bn1): BatchNorm2d(50, eps=1e-05, momentum=0.1, affine=True, track_running_stats=True)
      (relu): ReLU()
      (conv2): Conv2d(50, 50, kernel_size=(3, 3), stride=(1, 1))
    )
    (c3_d): Conv2d(50, 25, kernel_size=(1, 1), stride=(1, 1))
    (c3_rfdb): Residual(
      (conv1): Conv2d(50, 50, kernel_size=(3, 3), stride=(1, 1), padding=(1, 1), groups=50)
      (bn1): BatchNorm2d(50, eps=1e-05, momentum=0.1, affine=True, track_running_stats=True)
      (relu): ReLU()
      (conv2): Conv2d(50, 50, kernel_size=(3, 3), stride=(1, 1))
    )
    (c4): Conv2d(50, 25, kernel_size=(3, 3), stride=(1, 1), padding=(1, 1))
    (act): LeakyReLU(negative_slope=0.05, inplace=True)
    (c5): Conv2d(100, 50, kernel_size=(1, 1), stride=(1, 1))
    (esa): ESA(
      (conv1): Conv2d(50, 12, kernel_size=(1, 1), stride=(1, 1))
      (conv_f): Conv2d(12, 12, kernel_size=(1, 1), stride=(1, 1))
      (conv_max): Conv2d(12, 12, kernel_size=(3, 3), stride=(1, 1), padding=(1, 1))
      (conv_un): PixelUnshuffle()
      (con_): Conv2d(48, 12, kernel_size=(1, 1), stride=(1, 1), padding=(1, 1))
      (conv_sh): PixelShuffle(upscale_factor=2)
      (conv4): Conv2d(12, 50, kernel_size=(1, 1), stride=(1, 1))
      (sigmoid): Sigmoid()
      (relu): ReLU(inplace=True)
    )
  )
  (B4): RFDB(
    (c1_d): Conv2d(50, 25, kernel_size=(1, 1), stride=(1, 1))
    (c1_rfdb): Residual(
      (conv1): Conv2d(50, 50, kernel_size=(3, 3), stride=(1, 1), padding=(1, 1), groups=50)
      (bn1): BatchNorm2d(50, eps=1e-05, momentum=0.1, affine=True, track_running_stats=True)
      (relu): ReLU()
      (conv2): Conv2d(50, 50, kernel_size=(3, 3), stride=(1, 1))
    )
    (c2_d): Conv2d(50, 25, kernel_size=(1, 1), stride=(1, 1))
    (c2_rfdb): Residual(
      (conv1): Conv2d(50, 50, kernel_size=(3, 3), stride=(1, 1), padding=(1, 1), groups=50)
      (bn1): BatchNorm2d(50, eps=1e-05, momentum=0.1, affine=True, track_running_stats=True)
      (relu): ReLU()
      (conv2): Conv2d(50, 50, kernel_size=(3, 3), stride=(1, 1))
    )
    (c3_d): Conv2d(50, 25, kernel_size=(1, 1), stride=(1, 1))
    (c3_rfdb): Residual(
      (conv1): Conv2d(50, 50, kernel_size=(3, 3), stride=(1, 1), padding=(1, 1), groups=50)
      (bn1): BatchNorm2d(50, eps=1e-05, momentum=0.1, affine=True, track_running_stats=True)
      (relu): ReLU()
      (conv2): Conv2d(50, 50, kernel_size=(3, 3), stride=(1, 1))
    )
    (c4): Conv2d(50, 25, kernel_size=(3, 3), stride=(1, 1), padding=(1, 1))
    (act): LeakyReLU(negative_slope=0.05, inplace=True)
    (c5): Conv2d(100, 50, kernel_size=(1, 1), stride=(1, 1))
    (esa): ESA(
      (conv1): Conv2d(50, 12, kernel_size=(1, 1), stride=(1, 1))
      (conv_f): Conv2d(12, 12, kernel_size=(1, 1), stride=(1, 1))
      (conv_max): Conv2d(12, 12, kernel_size=(3, 3), stride=(1, 1), padding=(1, 1))
      (conv_un): PixelUnshuffle()
      (con_): Conv2d(48, 12, kernel_size=(1, 1), stride=(1, 1), padding=(1, 1))
      (conv_sh): PixelShuffle(upscale_factor=2)
      (conv4): Conv2d(12, 50, kernel_size=(1, 1), stride=(1, 1))
      (sigmoid): Sigmoid()
      (relu): ReLU(inplace=True)
    )
  )
  (c): Sequential(
    (0): Conv2d(200, 50, kernel_size=(1, 1), stride=(1, 1))
    (1): LeakyReLU(negative_slope=0.05, inplace=True)
  )
  (LR_conv): Conv2d(50, 50, kernel_size=(3, 3), stride=(1, 1), padding=(1, 1))
  (upsampler): Sequential(
    (0): Conv2d(50, 48, kernel_size=(3, 3), stride=(1, 1), padding=(1, 1))
    (1): PixelShuffle(upscale_factor=4)
  )
)
[Epoch 1]	Learning rate: 1.00e-4
RFDN(
  (fea_conv): Conv2d(3, 50, kernel_size=(3, 3), stride=(1, 1), padding=(1, 1))
  (B1): RFDB(
    (c1_d): Conv2d(50, 25, kernel_size=(1, 1), stride=(1, 1))
    (c1_rfdb): Residual(
      (conv1): Conv2d(50, 50, kernel_size=(3, 3), stride=(1, 1), padding=(1, 1), groups=50)
      (relu): ReLU()
      (conv2): Conv2d(50, 50, kernel_size=(3, 3), stride=(1, 1))
    )
    (c2_d): Conv2d(50, 25, kernel_size=(1, 1), stride=(1, 1))
    (c2_rfdb): Residual(
      (conv1): Conv2d(50, 50, kernel_size=(3, 3), stride=(1, 1), padding=(1, 1), groups=50)
      (relu): ReLU()
      (conv2): Conv2d(50, 50, kernel_size=(3, 3), stride=(1, 1))
    )
    (c3_d): Conv2d(50, 25, kernel_size=(1, 1), stride=(1, 1))
    (c3_rfdb): Residual(
      (conv1): Conv2d(50, 50, kernel_size=(3, 3), stride=(1, 1), padding=(1, 1), groups=50)
      (relu): ReLU()
      (conv2): Conv2d(50, 50, kernel_size=(3, 3), stride=(1, 1))
    )
    (c4): Conv2d(50, 25, kernel_size=(3, 3), stride=(1, 1), padding=(1, 1))
    (act): LeakyReLU(negative_slope=0.05, inplace=True)
    (c5): Conv2d(100, 50, kernel_size=(1, 1), stride=(1, 1))
    (esa): ESA(
      (conv1): Conv2d(50, 12, kernel_size=(1, 1), stride=(1, 1))
      (conv_f): Conv2d(12, 12, kernel_size=(1, 1), stride=(1, 1))
      (conv_max): Conv2d(12, 12, kernel_size=(3, 3), stride=(1, 1), padding=(1, 1))
      (conv_un): PixelUnshuffle()
      (con_): Conv2d(48, 12, kernel_size=(1, 1), stride=(1, 1), padding=(1, 1))
      (conv_sh): PixelShuffle(upscale_factor=2)
      (conv4): Conv2d(12, 50, kernel_size=(1, 1), stride=(1, 1))
      (sigmoid): Sigmoid()
      (relu): ReLU(inplace=True)
    )
  )
  (B2): RFDB(
    (c1_d): Conv2d(50, 25, kernel_size=(1, 1), stride=(1, 1))
    (c1_rfdb): Residual(
      (conv1): Conv2d(50, 50, kernel_size=(3, 3), stride=(1, 1), padding=(1, 1), groups=50)
      (relu): ReLU()
      (conv2): Conv2d(50, 50, kernel_size=(3, 3), stride=(1, 1))
    )
    (c2_d): Conv2d(50, 25, kernel_size=(1, 1), stride=(1, 1))
    (c2_rfdb): Residual(
      (conv1): Conv2d(50, 50, kernel_size=(3, 3), stride=(1, 1), padding=(1, 1), groups=50)
      (relu): ReLU()
      (conv2): Conv2d(50, 50, kernel_size=(3, 3), stride=(1, 1))
    )
    (c3_d): Conv2d(50, 25, kernel_size=(1, 1), stride=(1, 1))
    (c3_rfdb): Residual(
      (conv1): Conv2d(50, 50, kernel_size=(3, 3), stride=(1, 1), padding=(1, 1), groups=50)
      (relu): ReLU()
      (conv2): Conv2d(50, 50, kernel_size=(3, 3), stride=(1, 1))
    )
    (c4): Conv2d(50, 25, kernel_size=(3, 3), stride=(1, 1), padding=(1, 1))
    (act): LeakyReLU(negative_slope=0.05, inplace=True)
    (c5): Conv2d(100, 50, kernel_size=(1, 1), stride=(1, 1))
    (esa): ESA(
      (conv1): Conv2d(50, 12, kernel_size=(1, 1), stride=(1, 1))
      (conv_f): Conv2d(12, 12, kernel_size=(1, 1), stride=(1, 1))
      (conv_max): Conv2d(12, 12, kernel_size=(3, 3), stride=(1, 1), padding=(1, 1))
      (conv_un): PixelUnshuffle()
      (con_): Conv2d(48, 12, kernel_size=(1, 1), stride=(1, 1), padding=(1, 1))
      (conv_sh): PixelShuffle(upscale_factor=2)
      (conv4): Conv2d(12, 50, kernel_size=(1, 1), stride=(1, 1))
      (sigmoid): Sigmoid()
      (relu): ReLU(inplace=True)
    )
  )
  (B3): RFDB(
    (c1_d): Conv2d(50, 25, kernel_size=(1, 1), stride=(1, 1))
    (c1_rfdb): Residual(
      (conv1): Conv2d(50, 50, kernel_size=(3, 3), stride=(1, 1), padding=(1, 1), groups=50)
      (relu): ReLU()
      (conv2): Conv2d(50, 50, kernel_size=(3, 3), stride=(1, 1))
    )
    (c2_d): Conv2d(50, 25, kernel_size=(1, 1), stride=(1, 1))
    (c2_rfdb): Residual(
      (conv1): Conv2d(50, 50, kernel_size=(3, 3), stride=(1, 1), padding=(1, 1), groups=50)
      (relu): ReLU()
      (conv2): Conv2d(50, 50, kernel_size=(3, 3), stride=(1, 1))
    )
    (c3_d): Conv2d(50, 25, kernel_size=(1, 1), stride=(1, 1))
    (c3_rfdb): Residual(
      (conv1): Conv2d(50, 50, kernel_size=(3, 3), stride=(1, 1), padding=(1, 1), groups=50)
      (relu): ReLU()
      (conv2): Conv2d(50, 50, kernel_size=(3, 3), stride=(1, 1))
    )
    (c4): Conv2d(50, 25, kernel_size=(3, 3), stride=(1, 1), padding=(1, 1))
    (act): LeakyReLU(negative_slope=0.05, inplace=True)
    (c5): Conv2d(100, 50, kernel_size=(1, 1), stride=(1, 1))
    (esa): ESA(
      (conv1): Conv2d(50, 12, kernel_size=(1, 1), stride=(1, 1))
      (conv_f): Conv2d(12, 12, kernel_size=(1, 1), stride=(1, 1))
      (conv_max): Conv2d(12, 12, kernel_size=(3, 3), stride=(1, 1), padding=(1, 1))
      (conv_un): PixelUnshuffle()
      (con_): Conv2d(48, 12, kernel_size=(1, 1), stride=(1, 1), padding=(1, 1))
      (conv_sh): PixelShuffle(upscale_factor=2)
      (conv4): Conv2d(12, 50, kernel_size=(1, 1), stride=(1, 1))
      (sigmoid): Sigmoid()
      (relu): ReLU(inplace=True)
    )
  )
  (B4): RFDB(
    (c1_d): Conv2d(50, 25, kernel_size=(1, 1), stride=(1, 1))
    (c1_rfdb): Residual(
      (conv1): Conv2d(50, 50, kernel_size=(3, 3), stride=(1, 1), padding=(1, 1), groups=50)
      (relu): ReLU()
      (conv2): Conv2d(50, 50, kernel_size=(3, 3), stride=(1, 1))
    )
    (c2_d): Conv2d(50, 25, kernel_size=(1, 1), stride=(1, 1))
    (c2_rfdb): Residual(
      (conv1): Conv2d(50, 50, kernel_size=(3, 3), stride=(1, 1), padding=(1, 1), groups=50)
      (relu): ReLU()
      (conv2): Conv2d(50, 50, kernel_size=(3, 3), stride=(1, 1))
    )
    (c3_d): Conv2d(50, 25, kernel_size=(1, 1), stride=(1, 1))
    (c3_rfdb): Residual(
      (conv1): Conv2d(50, 50, kernel_size=(3, 3), stride=(1, 1), padding=(1, 1), groups=50)
      (relu): ReLU()
      (conv2): Conv2d(50, 50, kernel_size=(3, 3), stride=(1, 1))
    )
    (c4): Conv2d(50, 25, kernel_size=(3, 3), stride=(1, 1), padding=(1, 1))
    (act): LeakyReLU(negative_slope=0.05, inplace=True)
    (c5): Conv2d(100, 50, kernel_size=(1, 1), stride=(1, 1))
    (esa): ESA(
      (conv1): Conv2d(50, 12, kernel_size=(1, 1), stride=(1, 1))
      (conv_f): Conv2d(12, 12, kernel_size=(1, 1), stride=(1, 1))
      (conv_max): Conv2d(12, 12, kernel_size=(3, 3), stride=(1, 1), padding=(1, 1))
      (conv_un): PixelUnshuffle()
      (con_): Conv2d(48, 12, kernel_size=(1, 1), stride=(1, 1), padding=(1, 1))
      (conv_sh): PixelShuffle(upscale_factor=2)
      (conv4): Conv2d(12, 50, kernel_size=(1, 1), stride=(1, 1))
      (sigmoid): Sigmoid()
      (relu): ReLU(inplace=True)
    )
  )
  (c): Sequential(
    (0): Conv2d(200, 50, kernel_size=(1, 1), stride=(1, 1))
    (1): LeakyReLU(negative_slope=0.05, inplace=True)
  )
  (LR_conv): Conv2d(50, 50, kernel_size=(3, 3), stride=(1, 1), padding=(1, 1))
  (upsampler): Sequential(
    (0): Conv2d(50, 48, kernel_size=(3, 3), stride=(1, 1), padding=(1, 1))
    (1): PixelShuffle(upscale_factor=4)
  )
)
[Epoch 1]	Learning rate: 1.00e-4
RFDN(
  (fea_conv): Conv2d(3, 50, kernel_size=(3, 3), stride=(1, 1), padding=(1, 1))
  (B1): RFDB(
    (c1_d): Conv2d(50, 25, kernel_size=(1, 1), stride=(1, 1))
    (c1_rfdb): Residual(
      (conv1): Conv2d(50, 50, kernel_size=(3, 3), stride=(1, 1), padding=(1, 1), groups=50)
      (bn1): BatchNorm2d(50, eps=1e-05, momentum=0.1, affine=True, track_running_stats=True)
      (relu): ReLU()
    )
    (c2_d): Conv2d(50, 25, kernel_size=(1, 1), stride=(1, 1))
    (c2_rfdb): Residual(
      (conv1): Conv2d(50, 50, kernel_size=(3, 3), stride=(1, 1), padding=(1, 1), groups=50)
      (bn1): BatchNorm2d(50, eps=1e-05, momentum=0.1, affine=True, track_running_stats=True)
      (relu): ReLU()
    )
    (c3_d): Conv2d(50, 25, kernel_size=(1, 1), stride=(1, 1))
    (c3_rfdb): Residual(
      (conv1): Conv2d(50, 50, kernel_size=(3, 3), stride=(1, 1), padding=(1, 1), groups=50)
      (bn1): BatchNorm2d(50, eps=1e-05, momentum=0.1, affine=True, track_running_stats=True)
      (relu): ReLU()
    )
    (c4): Conv2d(50, 25, kernel_size=(3, 3), stride=(1, 1), padding=(1, 1))
    (act): LeakyReLU(negative_slope=0.05, inplace=True)
    (c5): Conv2d(100, 50, kernel_size=(1, 1), stride=(1, 1))
    (esa): ESA(
      (conv1): Conv2d(50, 12, kernel_size=(1, 1), stride=(1, 1))
      (conv_f): Conv2d(12, 12, kernel_size=(1, 1), stride=(1, 1))
      (conv_max): Conv2d(12, 12, kernel_size=(3, 3), stride=(1, 1), padding=(1, 1))
      (conv_un): PixelUnshuffle()
      (con_): Conv2d(48, 12, kernel_size=(1, 1), stride=(1, 1), padding=(1, 1))
      (conv_sh): PixelShuffle(upscale_factor=2)
      (conv4): Conv2d(12, 50, kernel_size=(1, 1), stride=(1, 1))
      (sigmoid): Sigmoid()
      (relu): ReLU(inplace=True)
    )
  )
  (B2): RFDB(
    (c1_d): Conv2d(50, 25, kernel_size=(1, 1), stride=(1, 1))
    (c1_rfdb): Residual(
      (conv1): Conv2d(50, 50, kernel_size=(3, 3), stride=(1, 1), padding=(1, 1), groups=50)
      (bn1): BatchNorm2d(50, eps=1e-05, momentum=0.1, affine=True, track_running_stats=True)
      (relu): ReLU()
    )
    (c2_d): Conv2d(50, 25, kernel_size=(1, 1), stride=(1, 1))
    (c2_rfdb): Residual(
      (conv1): Conv2d(50, 50, kernel_size=(3, 3), stride=(1, 1), padding=(1, 1), groups=50)
      (bn1): BatchNorm2d(50, eps=1e-05, momentum=0.1, affine=True, track_running_stats=True)
      (relu): ReLU()
    )
    (c3_d): Conv2d(50, 25, kernel_size=(1, 1), stride=(1, 1))
    (c3_rfdb): Residual(
      (conv1): Conv2d(50, 50, kernel_size=(3, 3), stride=(1, 1), padding=(1, 1), groups=50)
      (bn1): BatchNorm2d(50, eps=1e-05, momentum=0.1, affine=True, track_running_stats=True)
      (relu): ReLU()
    )
    (c4): Conv2d(50, 25, kernel_size=(3, 3), stride=(1, 1), padding=(1, 1))
    (act): LeakyReLU(negative_slope=0.05, inplace=True)
    (c5): Conv2d(100, 50, kernel_size=(1, 1), stride=(1, 1))
    (esa): ESA(
      (conv1): Conv2d(50, 12, kernel_size=(1, 1), stride=(1, 1))
      (conv_f): Conv2d(12, 12, kernel_size=(1, 1), stride=(1, 1))
      (conv_max): Conv2d(12, 12, kernel_size=(3, 3), stride=(1, 1), padding=(1, 1))
      (conv_un): PixelUnshuffle()
      (con_): Conv2d(48, 12, kernel_size=(1, 1), stride=(1, 1), padding=(1, 1))
      (conv_sh): PixelShuffle(upscale_factor=2)
      (conv4): Conv2d(12, 50, kernel_size=(1, 1), stride=(1, 1))
      (sigmoid): Sigmoid()
      (relu): ReLU(inplace=True)
    )
  )
  (B3): RFDB(
    (c1_d): Conv2d(50, 25, kernel_size=(1, 1), stride=(1, 1))
    (c1_rfdb): Residual(
      (conv1): Conv2d(50, 50, kernel_size=(3, 3), stride=(1, 1), padding=(1, 1), groups=50)
      (bn1): BatchNorm2d(50, eps=1e-05, momentum=0.1, affine=True, track_running_stats=True)
      (relu): ReLU()
    )
    (c2_d): Conv2d(50, 25, kernel_size=(1, 1), stride=(1, 1))
    (c2_rfdb): Residual(
      (conv1): Conv2d(50, 50, kernel_size=(3, 3), stride=(1, 1), padding=(1, 1), groups=50)
      (bn1): BatchNorm2d(50, eps=1e-05, momentum=0.1, affine=True, track_running_stats=True)
      (relu): ReLU()
    )
    (c3_d): Conv2d(50, 25, kernel_size=(1, 1), stride=(1, 1))
    (c3_rfdb): Residual(
      (conv1): Conv2d(50, 50, kernel_size=(3, 3), stride=(1, 1), padding=(1, 1), groups=50)
      (bn1): BatchNorm2d(50, eps=1e-05, momentum=0.1, affine=True, track_running_stats=True)
      (relu): ReLU()
    )
    (c4): Conv2d(50, 25, kernel_size=(3, 3), stride=(1, 1), padding=(1, 1))
    (act): LeakyReLU(negative_slope=0.05, inplace=True)
    (c5): Conv2d(100, 50, kernel_size=(1, 1), stride=(1, 1))
    (esa): ESA(
      (conv1): Conv2d(50, 12, kernel_size=(1, 1), stride=(1, 1))
      (conv_f): Conv2d(12, 12, kernel_size=(1, 1), stride=(1, 1))
      (conv_max): Conv2d(12, 12, kernel_size=(3, 3), stride=(1, 1), padding=(1, 1))
      (conv_un): PixelUnshuffle()
      (con_): Conv2d(48, 12, kernel_size=(1, 1), stride=(1, 1), padding=(1, 1))
      (conv_sh): PixelShuffle(upscale_factor=2)
      (conv4): Conv2d(12, 50, kernel_size=(1, 1), stride=(1, 1))
      (sigmoid): Sigmoid()
      (relu): ReLU(inplace=True)
    )
  )
  (B4): RFDB(
    (c1_d): Conv2d(50, 25, kernel_size=(1, 1), stride=(1, 1))
    (c1_rfdb): Residual(
      (conv1): Conv2d(50, 50, kernel_size=(3, 3), stride=(1, 1), padding=(1, 1), groups=50)
      (bn1): BatchNorm2d(50, eps=1e-05, momentum=0.1, affine=True, track_running_stats=True)
      (relu): ReLU()
    )
    (c2_d): Conv2d(50, 25, kernel_size=(1, 1), stride=(1, 1))
    (c2_rfdb): Residual(
      (conv1): Conv2d(50, 50, kernel_size=(3, 3), stride=(1, 1), padding=(1, 1), groups=50)
      (bn1): BatchNorm2d(50, eps=1e-05, momentum=0.1, affine=True, track_running_stats=True)
      (relu): ReLU()
    )
    (c3_d): Conv2d(50, 25, kernel_size=(1, 1), stride=(1, 1))
    (c3_rfdb): Residual(
      (conv1): Conv2d(50, 50, kernel_size=(3, 3), stride=(1, 1), padding=(1, 1), groups=50)
      (bn1): BatchNorm2d(50, eps=1e-05, momentum=0.1, affine=True, track_running_stats=True)
      (relu): ReLU()
    )
    (c4): Conv2d(50, 25, kernel_size=(3, 3), stride=(1, 1), padding=(1, 1))
    (act): LeakyReLU(negative_slope=0.05, inplace=True)
    (c5): Conv2d(100, 50, kernel_size=(1, 1), stride=(1, 1))
    (esa): ESA(
      (conv1): Conv2d(50, 12, kernel_size=(1, 1), stride=(1, 1))
      (conv_f): Conv2d(12, 12, kernel_size=(1, 1), stride=(1, 1))
      (conv_max): Conv2d(12, 12, kernel_size=(3, 3), stride=(1, 1), padding=(1, 1))
      (conv_un): PixelUnshuffle()
      (con_): Conv2d(48, 12, kernel_size=(1, 1), stride=(1, 1), padding=(1, 1))
      (conv_sh): PixelShuffle(upscale_factor=2)
      (conv4): Conv2d(12, 50, kernel_size=(1, 1), stride=(1, 1))
      (sigmoid): Sigmoid()
      (relu): ReLU(inplace=True)
    )
  )
  (c): Sequential(
    (0): Conv2d(200, 50, kernel_size=(1, 1), stride=(1, 1))
    (1): LeakyReLU(negative_slope=0.05, inplace=True)
  )
  (LR_conv): Conv2d(50, 50, kernel_size=(3, 3), stride=(1, 1), padding=(1, 1))
  (upsampler): Sequential(
    (0): Conv2d(50, 48, kernel_size=(3, 3), stride=(1, 1), padding=(1, 1))
    (1): PixelShuffle(upscale_factor=4)
  )
)
[Epoch 1]	Learning rate: 1.00e-4
RFDN(
  (fea_conv): Conv2d(3, 50, kernel_size=(3, 3), stride=(1, 1), padding=(1, 1))
  (B1): RFDB(
    (c1_d): Conv2d(50, 25, kernel_size=(1, 1), stride=(1, 1))
    (c1_rfdb): Residual(
      (conv1): Conv2d(50, 50, kernel_size=(3, 3), stride=(1, 1), padding=(1, 1), groups=50)
      (bn1): BatchNorm2d(50, eps=1e-05, momentum=0.1, affine=True, track_running_stats=True)
      (relu): ReLU()
      (conv2): Conv2d(50, 50, kernel_size=(3, 3), stride=(1, 1), padding=(1, 1))
    )
    (c2_d): Conv2d(50, 25, kernel_size=(1, 1), stride=(1, 1))
    (c2_rfdb): Residual(
      (conv1): Conv2d(50, 50, kernel_size=(3, 3), stride=(1, 1), padding=(1, 1), groups=50)
      (bn1): BatchNorm2d(50, eps=1e-05, momentum=0.1, affine=True, track_running_stats=True)
      (relu): ReLU()
      (conv2): Conv2d(50, 50, kernel_size=(3, 3), stride=(1, 1), padding=(1, 1))
    )
    (c3_d): Conv2d(50, 25, kernel_size=(1, 1), stride=(1, 1))
    (c3_rfdb): Residual(
      (conv1): Conv2d(50, 50, kernel_size=(3, 3), stride=(1, 1), padding=(1, 1), groups=50)
      (bn1): BatchNorm2d(50, eps=1e-05, momentum=0.1, affine=True, track_running_stats=True)
      (relu): ReLU()
      (conv2): Conv2d(50, 50, kernel_size=(3, 3), stride=(1, 1), padding=(1, 1))
    )
    (c4): Conv2d(50, 25, kernel_size=(3, 3), stride=(1, 1), padding=(1, 1))
    (act): LeakyReLU(negative_slope=0.05, inplace=True)
    (c5): Conv2d(100, 50, kernel_size=(1, 1), stride=(1, 1))
    (esa): ESA(
      (conv1): Conv2d(50, 12, kernel_size=(1, 1), stride=(1, 1))
      (conv_f): Conv2d(12, 12, kernel_size=(1, 1), stride=(1, 1))
      (conv_max): Conv2d(12, 12, kernel_size=(3, 3), stride=(1, 1), padding=(1, 1))
      (conv_un): PixelUnshuffle()
      (con_): Conv2d(48, 12, kernel_size=(1, 1), stride=(1, 1), padding=(1, 1))
      (conv_sh): PixelShuffle(upscale_factor=2)
      (conv4): Conv2d(12, 50, kernel_size=(1, 1), stride=(1, 1))
      (sigmoid): Sigmoid()
      (relu): ReLU(inplace=True)
    )
  )
  (B2): RFDB(
    (c1_d): Conv2d(50, 25, kernel_size=(1, 1), stride=(1, 1))
    (c1_rfdb): Residual(
      (conv1): Conv2d(50, 50, kernel_size=(3, 3), stride=(1, 1), padding=(1, 1), groups=50)
      (bn1): BatchNorm2d(50, eps=1e-05, momentum=0.1, affine=True, track_running_stats=True)
      (relu): ReLU()
      (conv2): Conv2d(50, 50, kernel_size=(3, 3), stride=(1, 1), padding=(1, 1))
    )
    (c2_d): Conv2d(50, 25, kernel_size=(1, 1), stride=(1, 1))
    (c2_rfdb): Residual(
      (conv1): Conv2d(50, 50, kernel_size=(3, 3), stride=(1, 1), padding=(1, 1), groups=50)
      (bn1): BatchNorm2d(50, eps=1e-05, momentum=0.1, affine=True, track_running_stats=True)
      (relu): ReLU()
      (conv2): Conv2d(50, 50, kernel_size=(3, 3), stride=(1, 1), padding=(1, 1))
    )
    (c3_d): Conv2d(50, 25, kernel_size=(1, 1), stride=(1, 1))
    (c3_rfdb): Residual(
      (conv1): Conv2d(50, 50, kernel_size=(3, 3), stride=(1, 1), padding=(1, 1), groups=50)
      (bn1): BatchNorm2d(50, eps=1e-05, momentum=0.1, affine=True, track_running_stats=True)
      (relu): ReLU()
      (conv2): Conv2d(50, 50, kernel_size=(3, 3), stride=(1, 1), padding=(1, 1))
    )
    (c4): Conv2d(50, 25, kernel_size=(3, 3), stride=(1, 1), padding=(1, 1))
    (act): LeakyReLU(negative_slope=0.05, inplace=True)
    (c5): Conv2d(100, 50, kernel_size=(1, 1), stride=(1, 1))
    (esa): ESA(
      (conv1): Conv2d(50, 12, kernel_size=(1, 1), stride=(1, 1))
      (conv_f): Conv2d(12, 12, kernel_size=(1, 1), stride=(1, 1))
      (conv_max): Conv2d(12, 12, kernel_size=(3, 3), stride=(1, 1), padding=(1, 1))
      (conv_un): PixelUnshuffle()
      (con_): Conv2d(48, 12, kernel_size=(1, 1), stride=(1, 1), padding=(1, 1))
      (conv_sh): PixelShuffle(upscale_factor=2)
      (conv4): Conv2d(12, 50, kernel_size=(1, 1), stride=(1, 1))
      (sigmoid): Sigmoid()
      (relu): ReLU(inplace=True)
    )
  )
  (B3): RFDB(
    (c1_d): Conv2d(50, 25, kernel_size=(1, 1), stride=(1, 1))
    (c1_rfdb): Residual(
      (conv1): Conv2d(50, 50, kernel_size=(3, 3), stride=(1, 1), padding=(1, 1), groups=50)
      (bn1): BatchNorm2d(50, eps=1e-05, momentum=0.1, affine=True, track_running_stats=True)
      (relu): ReLU()
      (conv2): Conv2d(50, 50, kernel_size=(3, 3), stride=(1, 1), padding=(1, 1))
    )
    (c2_d): Conv2d(50, 25, kernel_size=(1, 1), stride=(1, 1))
    (c2_rfdb): Residual(
      (conv1): Conv2d(50, 50, kernel_size=(3, 3), stride=(1, 1), padding=(1, 1), groups=50)
      (bn1): BatchNorm2d(50, eps=1e-05, momentum=0.1, affine=True, track_running_stats=True)
      (relu): ReLU()
      (conv2): Conv2d(50, 50, kernel_size=(3, 3), stride=(1, 1), padding=(1, 1))
    )
    (c3_d): Conv2d(50, 25, kernel_size=(1, 1), stride=(1, 1))
    (c3_rfdb): Residual(
      (conv1): Conv2d(50, 50, kernel_size=(3, 3), stride=(1, 1), padding=(1, 1), groups=50)
      (bn1): BatchNorm2d(50, eps=1e-05, momentum=0.1, affine=True, track_running_stats=True)
      (relu): ReLU()
      (conv2): Conv2d(50, 50, kernel_size=(3, 3), stride=(1, 1), padding=(1, 1))
    )
    (c4): Conv2d(50, 25, kernel_size=(3, 3), stride=(1, 1), padding=(1, 1))
    (act): LeakyReLU(negative_slope=0.05, inplace=True)
    (c5): Conv2d(100, 50, kernel_size=(1, 1), stride=(1, 1))
    (esa): ESA(
      (conv1): Conv2d(50, 12, kernel_size=(1, 1), stride=(1, 1))
      (conv_f): Conv2d(12, 12, kernel_size=(1, 1), stride=(1, 1))
      (conv_max): Conv2d(12, 12, kernel_size=(3, 3), stride=(1, 1), padding=(1, 1))
      (conv_un): PixelUnshuffle()
      (con_): Conv2d(48, 12, kernel_size=(1, 1), stride=(1, 1), padding=(1, 1))
      (conv_sh): PixelShuffle(upscale_factor=2)
      (conv4): Conv2d(12, 50, kernel_size=(1, 1), stride=(1, 1))
      (sigmoid): Sigmoid()
      (relu): ReLU(inplace=True)
    )
  )
  (B4): RFDB(
    (c1_d): Conv2d(50, 25, kernel_size=(1, 1), stride=(1, 1))
    (c1_rfdb): Residual(
      (conv1): Conv2d(50, 50, kernel_size=(3, 3), stride=(1, 1), padding=(1, 1), groups=50)
      (bn1): BatchNorm2d(50, eps=1e-05, momentum=0.1, affine=True, track_running_stats=True)
      (relu): ReLU()
      (conv2): Conv2d(50, 50, kernel_size=(3, 3), stride=(1, 1), padding=(1, 1))
    )
    (c2_d): Conv2d(50, 25, kernel_size=(1, 1), stride=(1, 1))
    (c2_rfdb): Residual(
      (conv1): Conv2d(50, 50, kernel_size=(3, 3), stride=(1, 1), padding=(1, 1), groups=50)
      (bn1): BatchNorm2d(50, eps=1e-05, momentum=0.1, affine=True, track_running_stats=True)
      (relu): ReLU()
      (conv2): Conv2d(50, 50, kernel_size=(3, 3), stride=(1, 1), padding=(1, 1))
    )
    (c3_d): Conv2d(50, 25, kernel_size=(1, 1), stride=(1, 1))
    (c3_rfdb): Residual(
      (conv1): Conv2d(50, 50, kernel_size=(3, 3), stride=(1, 1), padding=(1, 1), groups=50)
      (bn1): BatchNorm2d(50, eps=1e-05, momentum=0.1, affine=True, track_running_stats=True)
      (relu): ReLU()
      (conv2): Conv2d(50, 50, kernel_size=(3, 3), stride=(1, 1), padding=(1, 1))
    )
    (c4): Conv2d(50, 25, kernel_size=(3, 3), stride=(1, 1), padding=(1, 1))
    (act): LeakyReLU(negative_slope=0.05, inplace=True)
    (c5): Conv2d(100, 50, kernel_size=(1, 1), stride=(1, 1))
    (esa): ESA(
      (conv1): Conv2d(50, 12, kernel_size=(1, 1), stride=(1, 1))
      (conv_f): Conv2d(12, 12, kernel_size=(1, 1), stride=(1, 1))
      (conv_max): Conv2d(12, 12, kernel_size=(3, 3), stride=(1, 1), padding=(1, 1))
      (conv_un): PixelUnshuffle()
      (con_): Conv2d(48, 12, kernel_size=(1, 1), stride=(1, 1), padding=(1, 1))
      (conv_sh): PixelShuffle(upscale_factor=2)
      (conv4): Conv2d(12, 50, kernel_size=(1, 1), stride=(1, 1))
      (sigmoid): Sigmoid()
      (relu): ReLU(inplace=True)
    )
  )
  (c): Sequential(
    (0): Conv2d(200, 50, kernel_size=(1, 1), stride=(1, 1))
    (1): LeakyReLU(negative_slope=0.05, inplace=True)
  )
  (LR_conv): Conv2d(50, 50, kernel_size=(3, 3), stride=(1, 1), padding=(1, 1))
  (upsampler): Sequential(
    (0): Conv2d(50, 48, kernel_size=(3, 3), stride=(1, 1), padding=(1, 1))
    (1): PixelShuffle(upscale_factor=4)
  )
)
[Epoch 1]	Learning rate: 1.00e-4
RFDN(
  (fea_conv): Conv2d(3, 50, kernel_size=(3, 3), stride=(1, 1), padding=(1, 1))
  (B1): RFDB(
    (c1_d): Conv2d(50, 25, kernel_size=(1, 1), stride=(1, 1))
    (c1_rfdb): Residual(
      (conv1): Conv2d(50, 50, kernel_size=(3, 3), stride=(1, 1), padding=(1, 1), groups=50)
      (bn1): BatchNorm2d(50, eps=1e-05, momentum=0.1, affine=True, track_running_stats=True)
      (relu): ReLU()
      (conv2): Conv2d(50, 50, kernel_size=(3, 3), stride=(1, 1), padding=(1, 1))
    )
    (c2_d): Conv2d(50, 25, kernel_size=(1, 1), stride=(1, 1))
    (c2_rfdb): Residual(
      (conv1): Conv2d(50, 50, kernel_size=(3, 3), stride=(1, 1), padding=(1, 1), groups=50)
      (bn1): BatchNorm2d(50, eps=1e-05, momentum=0.1, affine=True, track_running_stats=True)
      (relu): ReLU()
      (conv2): Conv2d(50, 50, kernel_size=(3, 3), stride=(1, 1), padding=(1, 1))
    )
    (c3_d): Conv2d(50, 25, kernel_size=(1, 1), stride=(1, 1))
    (c3_rfdb): Residual(
      (conv1): Conv2d(50, 50, kernel_size=(3, 3), stride=(1, 1), padding=(1, 1), groups=50)
      (bn1): BatchNorm2d(50, eps=1e-05, momentum=0.1, affine=True, track_running_stats=True)
      (relu): ReLU()
      (conv2): Conv2d(50, 50, kernel_size=(3, 3), stride=(1, 1), padding=(1, 1))
    )
    (c4): Conv2d(50, 25, kernel_size=(3, 3), stride=(1, 1), padding=(1, 1))
    (act): LeakyReLU(negative_slope=0.05, inplace=True)
    (c5): Conv2d(100, 50, kernel_size=(1, 1), stride=(1, 1))
    (esa): ESA(
      (conv1): Conv2d(50, 12, kernel_size=(1, 1), stride=(1, 1))
      (conv_f): Conv2d(12, 12, kernel_size=(1, 1), stride=(1, 1))
      (conv_max): Conv2d(12, 12, kernel_size=(3, 3), stride=(1, 1), padding=(1, 1))
      (conv_un): PixelUnshuffle()
      (con_): Conv2d(48, 12, kernel_size=(1, 1), stride=(1, 1), padding=(1, 1))
      (conv_sh): PixelShuffle(upscale_factor=2)
      (conv4): Conv2d(12, 50, kernel_size=(1, 1), stride=(1, 1))
      (sigmoid): Sigmoid()
      (relu): ReLU(inplace=True)
    )
  )
  (B2): RFDB(
    (c1_d): Conv2d(50, 25, kernel_size=(1, 1), stride=(1, 1))
    (c1_rfdb): Residual(
      (conv1): Conv2d(50, 50, kernel_size=(3, 3), stride=(1, 1), padding=(1, 1), groups=50)
      (bn1): BatchNorm2d(50, eps=1e-05, momentum=0.1, affine=True, track_running_stats=True)
      (relu): ReLU()
      (conv2): Conv2d(50, 50, kernel_size=(3, 3), stride=(1, 1), padding=(1, 1))
    )
    (c2_d): Conv2d(50, 25, kernel_size=(1, 1), stride=(1, 1))
    (c2_rfdb): Residual(
      (conv1): Conv2d(50, 50, kernel_size=(3, 3), stride=(1, 1), padding=(1, 1), groups=50)
      (bn1): BatchNorm2d(50, eps=1e-05, momentum=0.1, affine=True, track_running_stats=True)
      (relu): ReLU()
      (conv2): Conv2d(50, 50, kernel_size=(3, 3), stride=(1, 1), padding=(1, 1))
    )
    (c3_d): Conv2d(50, 25, kernel_size=(1, 1), stride=(1, 1))
    (c3_rfdb): Residual(
      (conv1): Conv2d(50, 50, kernel_size=(3, 3), stride=(1, 1), padding=(1, 1), groups=50)
      (bn1): BatchNorm2d(50, eps=1e-05, momentum=0.1, affine=True, track_running_stats=True)
      (relu): ReLU()
      (conv2): Conv2d(50, 50, kernel_size=(3, 3), stride=(1, 1), padding=(1, 1))
    )
    (c4): Conv2d(50, 25, kernel_size=(3, 3), stride=(1, 1), padding=(1, 1))
    (act): LeakyReLU(negative_slope=0.05, inplace=True)
    (c5): Conv2d(100, 50, kernel_size=(1, 1), stride=(1, 1))
    (esa): ESA(
      (conv1): Conv2d(50, 12, kernel_size=(1, 1), stride=(1, 1))
      (conv_f): Conv2d(12, 12, kernel_size=(1, 1), stride=(1, 1))
      (conv_max): Conv2d(12, 12, kernel_size=(3, 3), stride=(1, 1), padding=(1, 1))
      (conv_un): PixelUnshuffle()
      (con_): Conv2d(48, 12, kernel_size=(1, 1), stride=(1, 1), padding=(1, 1))
      (conv_sh): PixelShuffle(upscale_factor=2)
      (conv4): Conv2d(12, 50, kernel_size=(1, 1), stride=(1, 1))
      (sigmoid): Sigmoid()
      (relu): ReLU(inplace=True)
    )
  )
  (B3): RFDB(
    (c1_d): Conv2d(50, 25, kernel_size=(1, 1), stride=(1, 1))
    (c1_rfdb): Residual(
      (conv1): Conv2d(50, 50, kernel_size=(3, 3), stride=(1, 1), padding=(1, 1), groups=50)
      (bn1): BatchNorm2d(50, eps=1e-05, momentum=0.1, affine=True, track_running_stats=True)
      (relu): ReLU()
      (conv2): Conv2d(50, 50, kernel_size=(3, 3), stride=(1, 1), padding=(1, 1))
    )
    (c2_d): Conv2d(50, 25, kernel_size=(1, 1), stride=(1, 1))
    (c2_rfdb): Residual(
      (conv1): Conv2d(50, 50, kernel_size=(3, 3), stride=(1, 1), padding=(1, 1), groups=50)
      (bn1): BatchNorm2d(50, eps=1e-05, momentum=0.1, affine=True, track_running_stats=True)
      (relu): ReLU()
      (conv2): Conv2d(50, 50, kernel_size=(3, 3), stride=(1, 1), padding=(1, 1))
    )
    (c3_d): Conv2d(50, 25, kernel_size=(1, 1), stride=(1, 1))
    (c3_rfdb): Residual(
      (conv1): Conv2d(50, 50, kernel_size=(3, 3), stride=(1, 1), padding=(1, 1), groups=50)
      (bn1): BatchNorm2d(50, eps=1e-05, momentum=0.1, affine=True, track_running_stats=True)
      (relu): ReLU()
      (conv2): Conv2d(50, 50, kernel_size=(3, 3), stride=(1, 1), padding=(1, 1))
    )
    (c4): Conv2d(50, 25, kernel_size=(3, 3), stride=(1, 1), padding=(1, 1))
    (act): LeakyReLU(negative_slope=0.05, inplace=True)
    (c5): Conv2d(100, 50, kernel_size=(1, 1), stride=(1, 1))
    (esa): ESA(
      (conv1): Conv2d(50, 12, kernel_size=(1, 1), stride=(1, 1))
      (conv_f): Conv2d(12, 12, kernel_size=(1, 1), stride=(1, 1))
      (conv_max): Conv2d(12, 12, kernel_size=(3, 3), stride=(1, 1), padding=(1, 1))
      (conv_un): PixelUnshuffle()
      (con_): Conv2d(48, 12, kernel_size=(1, 1), stride=(1, 1), padding=(1, 1))
      (conv_sh): PixelShuffle(upscale_factor=2)
      (conv4): Conv2d(12, 50, kernel_size=(1, 1), stride=(1, 1))
      (sigmoid): Sigmoid()
      (relu): ReLU(inplace=True)
    )
  )
  (B4): RFDB(
    (c1_d): Conv2d(50, 25, kernel_size=(1, 1), stride=(1, 1))
    (c1_rfdb): Residual(
      (conv1): Conv2d(50, 50, kernel_size=(3, 3), stride=(1, 1), padding=(1, 1), groups=50)
      (bn1): BatchNorm2d(50, eps=1e-05, momentum=0.1, affine=True, track_running_stats=True)
      (relu): ReLU()
      (conv2): Conv2d(50, 50, kernel_size=(3, 3), stride=(1, 1), padding=(1, 1))
    )
    (c2_d): Conv2d(50, 25, kernel_size=(1, 1), stride=(1, 1))
    (c2_rfdb): Residual(
      (conv1): Conv2d(50, 50, kernel_size=(3, 3), stride=(1, 1), padding=(1, 1), groups=50)
      (bn1): BatchNorm2d(50, eps=1e-05, momentum=0.1, affine=True, track_running_stats=True)
      (relu): ReLU()
      (conv2): Conv2d(50, 50, kernel_size=(3, 3), stride=(1, 1), padding=(1, 1))
    )
    (c3_d): Conv2d(50, 25, kernel_size=(1, 1), stride=(1, 1))
    (c3_rfdb): Residual(
      (conv1): Conv2d(50, 50, kernel_size=(3, 3), stride=(1, 1), padding=(1, 1), groups=50)
      (bn1): BatchNorm2d(50, eps=1e-05, momentum=0.1, affine=True, track_running_stats=True)
      (relu): ReLU()
      (conv2): Conv2d(50, 50, kernel_size=(3, 3), stride=(1, 1), padding=(1, 1))
    )
    (c4): Conv2d(50, 25, kernel_size=(3, 3), stride=(1, 1), padding=(1, 1))
    (act): LeakyReLU(negative_slope=0.05, inplace=True)
    (c5): Conv2d(100, 50, kernel_size=(1, 1), stride=(1, 1))
    (esa): ESA(
      (conv1): Conv2d(50, 12, kernel_size=(1, 1), stride=(1, 1))
      (conv_f): Conv2d(12, 12, kernel_size=(1, 1), stride=(1, 1))
      (conv_max): Conv2d(12, 12, kernel_size=(3, 3), stride=(1, 1), padding=(1, 1))
      (conv_un): PixelUnshuffle()
      (con_): Conv2d(48, 12, kernel_size=(1, 1), stride=(1, 1), padding=(1, 1))
      (conv_sh): PixelShuffle(upscale_factor=2)
      (conv4): Conv2d(12, 50, kernel_size=(1, 1), stride=(1, 1))
      (sigmoid): Sigmoid()
      (relu): ReLU(inplace=True)
    )
  )
  (c): Sequential(
    (0): Conv2d(200, 50, kernel_size=(1, 1), stride=(1, 1))
    (1): LeakyReLU(negative_slope=0.05, inplace=True)
  )
  (LR_conv): Conv2d(50, 50, kernel_size=(3, 3), stride=(1, 1), padding=(1, 1))
  (upsampler): Sequential(
    (0): Conv2d(50, 48, kernel_size=(3, 3), stride=(1, 1), padding=(1, 1))
    (1): PixelShuffle(upscale_factor=4)
  )
)
[Epoch 1]	Learning rate: 1.00e-4
RFDN(
  (fea_conv): Conv2d(3, 50, kernel_size=(3, 3), stride=(1, 1), padding=(1, 1))
  (B1): RFDB(
    (c1_d): Conv2d(50, 25, kernel_size=(1, 1), stride=(1, 1))
    (c1_rfdb): Residual(
      (conv1): Conv2d(50, 50, kernel_size=(3, 3), stride=(1, 1), padding=(1, 1), groups=50)
      (bn1): BatchNorm2d(50, eps=1e-05, momentum=0.1, affine=True, track_running_stats=True)
      (relu): ReLU()
      (conv2): Conv2d(50, 50, kernel_size=(3, 3), stride=(1, 1), padding=(1, 1))
    )
    (c2_d): Conv2d(50, 25, kernel_size=(1, 1), stride=(1, 1))
    (c2_rfdb): Residual(
      (conv1): Conv2d(50, 50, kernel_size=(3, 3), stride=(1, 1), padding=(1, 1), groups=50)
      (bn1): BatchNorm2d(50, eps=1e-05, momentum=0.1, affine=True, track_running_stats=True)
      (relu): ReLU()
      (conv2): Conv2d(50, 50, kernel_size=(3, 3), stride=(1, 1), padding=(1, 1))
    )
    (c3_d): Conv2d(50, 25, kernel_size=(1, 1), stride=(1, 1))
    (c3_rfdb): Residual(
      (conv1): Conv2d(50, 50, kernel_size=(3, 3), stride=(1, 1), padding=(1, 1), groups=50)
      (bn1): BatchNorm2d(50, eps=1e-05, momentum=0.1, affine=True, track_running_stats=True)
      (relu): ReLU()
      (conv2): Conv2d(50, 50, kernel_size=(3, 3), stride=(1, 1), padding=(1, 1))
    )
    (c4): Conv2d(50, 25, kernel_size=(3, 3), stride=(1, 1), padding=(1, 1))
    (act): LeakyReLU(negative_slope=0.05, inplace=True)
    (c5): Conv2d(100, 50, kernel_size=(1, 1), stride=(1, 1))
    (esa): ESA(
      (conv1): Conv2d(50, 12, kernel_size=(1, 1), stride=(1, 1))
      (conv_f): Conv2d(12, 12, kernel_size=(1, 1), stride=(1, 1))
      (conv_max): Conv2d(12, 12, kernel_size=(3, 3), stride=(1, 1), padding=(1, 1))
      (conv_un): PixelUnshuffle()
      (con_): Conv2d(48, 12, kernel_size=(1, 1), stride=(1, 1), padding=(1, 1))
      (conv_sh): PixelShuffle(upscale_factor=2)
      (conv4): Conv2d(12, 50, kernel_size=(1, 1), stride=(1, 1))
      (sigmoid): Sigmoid()
      (relu): ReLU(inplace=True)
    )
  )
  (B2): RFDB(
    (c1_d): Conv2d(50, 25, kernel_size=(1, 1), stride=(1, 1))
    (c1_rfdb): Residual(
      (conv1): Conv2d(50, 50, kernel_size=(3, 3), stride=(1, 1), padding=(1, 1), groups=50)
      (bn1): BatchNorm2d(50, eps=1e-05, momentum=0.1, affine=True, track_running_stats=True)
      (relu): ReLU()
      (conv2): Conv2d(50, 50, kernel_size=(3, 3), stride=(1, 1), padding=(1, 1))
    )
    (c2_d): Conv2d(50, 25, kernel_size=(1, 1), stride=(1, 1))
    (c2_rfdb): Residual(
      (conv1): Conv2d(50, 50, kernel_size=(3, 3), stride=(1, 1), padding=(1, 1), groups=50)
      (bn1): BatchNorm2d(50, eps=1e-05, momentum=0.1, affine=True, track_running_stats=True)
      (relu): ReLU()
      (conv2): Conv2d(50, 50, kernel_size=(3, 3), stride=(1, 1), padding=(1, 1))
    )
    (c3_d): Conv2d(50, 25, kernel_size=(1, 1), stride=(1, 1))
    (c3_rfdb): Residual(
      (conv1): Conv2d(50, 50, kernel_size=(3, 3), stride=(1, 1), padding=(1, 1), groups=50)
      (bn1): BatchNorm2d(50, eps=1e-05, momentum=0.1, affine=True, track_running_stats=True)
      (relu): ReLU()
      (conv2): Conv2d(50, 50, kernel_size=(3, 3), stride=(1, 1), padding=(1, 1))
    )
    (c4): Conv2d(50, 25, kernel_size=(3, 3), stride=(1, 1), padding=(1, 1))
    (act): LeakyReLU(negative_slope=0.05, inplace=True)
    (c5): Conv2d(100, 50, kernel_size=(1, 1), stride=(1, 1))
    (esa): ESA(
      (conv1): Conv2d(50, 12, kernel_size=(1, 1), stride=(1, 1))
      (conv_f): Conv2d(12, 12, kernel_size=(1, 1), stride=(1, 1))
      (conv_max): Conv2d(12, 12, kernel_size=(3, 3), stride=(1, 1), padding=(1, 1))
      (conv_un): PixelUnshuffle()
      (con_): Conv2d(48, 12, kernel_size=(1, 1), stride=(1, 1), padding=(1, 1))
      (conv_sh): PixelShuffle(upscale_factor=2)
      (conv4): Conv2d(12, 50, kernel_size=(1, 1), stride=(1, 1))
      (sigmoid): Sigmoid()
      (relu): ReLU(inplace=True)
    )
  )
  (B3): RFDB(
    (c1_d): Conv2d(50, 25, kernel_size=(1, 1), stride=(1, 1))
    (c1_rfdb): Residual(
      (conv1): Conv2d(50, 50, kernel_size=(3, 3), stride=(1, 1), padding=(1, 1), groups=50)
      (bn1): BatchNorm2d(50, eps=1e-05, momentum=0.1, affine=True, track_running_stats=True)
      (relu): ReLU()
      (conv2): Conv2d(50, 50, kernel_size=(3, 3), stride=(1, 1), padding=(1, 1))
    )
    (c2_d): Conv2d(50, 25, kernel_size=(1, 1), stride=(1, 1))
    (c2_rfdb): Residual(
      (conv1): Conv2d(50, 50, kernel_size=(3, 3), stride=(1, 1), padding=(1, 1), groups=50)
      (bn1): BatchNorm2d(50, eps=1e-05, momentum=0.1, affine=True, track_running_stats=True)
      (relu): ReLU()
      (conv2): Conv2d(50, 50, kernel_size=(3, 3), stride=(1, 1), padding=(1, 1))
    )
    (c3_d): Conv2d(50, 25, kernel_size=(1, 1), stride=(1, 1))
    (c3_rfdb): Residual(
      (conv1): Conv2d(50, 50, kernel_size=(3, 3), stride=(1, 1), padding=(1, 1), groups=50)
      (bn1): BatchNorm2d(50, eps=1e-05, momentum=0.1, affine=True, track_running_stats=True)
      (relu): ReLU()
      (conv2): Conv2d(50, 50, kernel_size=(3, 3), stride=(1, 1), padding=(1, 1))
    )
    (c4): Conv2d(50, 25, kernel_size=(3, 3), stride=(1, 1), padding=(1, 1))
    (act): LeakyReLU(negative_slope=0.05, inplace=True)
    (c5): Conv2d(100, 50, kernel_size=(1, 1), stride=(1, 1))
    (esa): ESA(
      (conv1): Conv2d(50, 12, kernel_size=(1, 1), stride=(1, 1))
      (conv_f): Conv2d(12, 12, kernel_size=(1, 1), stride=(1, 1))
      (conv_max): Conv2d(12, 12, kernel_size=(3, 3), stride=(1, 1), padding=(1, 1))
      (conv_un): PixelUnshuffle()
      (con_): Conv2d(48, 12, kernel_size=(1, 1), stride=(1, 1), padding=(1, 1))
      (conv_sh): PixelShuffle(upscale_factor=2)
      (conv4): Conv2d(12, 50, kernel_size=(1, 1), stride=(1, 1))
      (sigmoid): Sigmoid()
      (relu): ReLU(inplace=True)
    )
  )
  (B4): RFDB(
    (c1_d): Conv2d(50, 25, kernel_size=(1, 1), stride=(1, 1))
    (c1_rfdb): Residual(
      (conv1): Conv2d(50, 50, kernel_size=(3, 3), stride=(1, 1), padding=(1, 1), groups=50)
      (bn1): BatchNorm2d(50, eps=1e-05, momentum=0.1, affine=True, track_running_stats=True)
      (relu): ReLU()
      (conv2): Conv2d(50, 50, kernel_size=(3, 3), stride=(1, 1), padding=(1, 1))
    )
    (c2_d): Conv2d(50, 25, kernel_size=(1, 1), stride=(1, 1))
    (c2_rfdb): Residual(
      (conv1): Conv2d(50, 50, kernel_size=(3, 3), stride=(1, 1), padding=(1, 1), groups=50)
      (bn1): BatchNorm2d(50, eps=1e-05, momentum=0.1, affine=True, track_running_stats=True)
      (relu): ReLU()
      (conv2): Conv2d(50, 50, kernel_size=(3, 3), stride=(1, 1), padding=(1, 1))
    )
    (c3_d): Conv2d(50, 25, kernel_size=(1, 1), stride=(1, 1))
    (c3_rfdb): Residual(
      (conv1): Conv2d(50, 50, kernel_size=(3, 3), stride=(1, 1), padding=(1, 1), groups=50)
      (bn1): BatchNorm2d(50, eps=1e-05, momentum=0.1, affine=True, track_running_stats=True)
      (relu): ReLU()
      (conv2): Conv2d(50, 50, kernel_size=(3, 3), stride=(1, 1), padding=(1, 1))
    )
    (c4): Conv2d(50, 25, kernel_size=(3, 3), stride=(1, 1), padding=(1, 1))
    (act): LeakyReLU(negative_slope=0.05, inplace=True)
    (c5): Conv2d(100, 50, kernel_size=(1, 1), stride=(1, 1))
    (esa): ESA(
      (conv1): Conv2d(50, 12, kernel_size=(1, 1), stride=(1, 1))
      (conv_f): Conv2d(12, 12, kernel_size=(1, 1), stride=(1, 1))
      (conv_max): Conv2d(12, 12, kernel_size=(3, 3), stride=(1, 1), padding=(1, 1))
      (conv_un): PixelUnshuffle()
      (con_): Conv2d(48, 12, kernel_size=(1, 1), stride=(1, 1), padding=(1, 1))
      (conv_sh): PixelShuffle(upscale_factor=2)
      (conv4): Conv2d(12, 50, kernel_size=(1, 1), stride=(1, 1))
      (sigmoid): Sigmoid()
      (relu): ReLU(inplace=True)
    )
  )
  (c): Sequential(
    (0): Conv2d(200, 50, kernel_size=(1, 1), stride=(1, 1))
    (1): LeakyReLU(negative_slope=0.05, inplace=True)
  )
  (LR_conv): Conv2d(50, 50, kernel_size=(3, 3), stride=(1, 1), padding=(1, 1))
  (upsampler): Sequential(
    (0): Conv2d(50, 48, kernel_size=(3, 3), stride=(1, 1), padding=(1, 1))
    (1): PixelShuffle(upscale_factor=4)
  )
)
[Epoch 1]	Learning rate: 1.00e-4
[1600/15800]	[L1: 40.5087]	8.8+12.7s
[3200/15800]	[L1: 29.2962]	4.3+0.6s
[4800/15800]	[L1: 24.3411]	3.8+0.7s
[6400/15800]	[L1: 21.3631]	3.9+0.7s
[8000/15800]	[L1: 19.3336]	4.3+0.6s
[9600/15800]	[L1: 17.8591]	3.9+0.7s
[11200/15800]	[L1: 16.7499]	3.9+0.7s
[12800/15800]	[L1: 15.8908]	4.1+0.6s
…
[14400/15800]	[L1: 6.5168]	4.8+0.5s

Evaluation:
[DIV2K x4]	PSNR: 29.449 (Best: 29.454 @epoch 295)
Forward: 6.08s

Saving...
Total: 6.35s

[Epoch 299]	Learning rate: 5.00e-5
[1600/15800]	[L1: 6.3710]	6.0+13.0s
[3200/15800]	[L1: 6.4952]	5.4+0.7s
[4800/15800]	[L1: 6.5210]	5.0+0.5s
[6400/15800]	[L1: 6.5737]	5.3+0.9s
[8000/15800]	[L1: 6.5628]	5.2+0.7s
[9600/15800]	[L1: 6.5691]	5.2+0.6s
[11200/15800]	[L1: 6.5544]	8.2+3.5s
[12800/15800]	[L1: 6.5579]	10.1+2.7s
[14400/15800]	[L1: 6.5599]	6.9+1.1s

Evaluation:
[DIV2K x4]	PSNR: 29.448 (Best: 29.454 @epoch 295)
Forward: 8.61s

Saving...
Total: 8.91s

RFDN(
  (fea_conv): Conv2d(3, 50, kernel_size=(3, 3), stride=(1, 1), padding=(1, 1))
  (B1): RFDB(
    (c1_d): Conv2d(50, 25, kernel_size=(1, 1), stride=(1, 1))
    (c1_rfdb): Residual(
      (conv1): Conv2d(50, 50, kernel_size=(3, 3), stride=(1, 1), padding=(1, 1), groups=50)
      (bn1): BatchNorm2d(50, eps=1e-05, momentum=0.1, affine=True, track_running_stats=True)
      (relu): ReLU()
      (conv2): Conv2d(50, 50, kernel_size=(3, 3), stride=(1, 1), padding=(1, 1))
    )
    (c2_d): Conv2d(50, 25, kernel_size=(1, 1), stride=(1, 1))
    (c2_rfdb): Residual(
      (conv1): Conv2d(50, 50, kernel_size=(3, 3), stride=(1, 1), padding=(1, 1), groups=50)
      (bn1): BatchNorm2d(50, eps=1e-05, momentum=0.1, affine=True, track_running_stats=True)
      (relu): ReLU()
      (conv2): Conv2d(50, 50, kernel_size=(3, 3), stride=(1, 1), padding=(1, 1))
    )
    (c3_d): Conv2d(50, 25, kernel_size=(1, 1), stride=(1, 1))
    (c3_rfdb): Residual(
      (conv1): Conv2d(50, 50, kernel_size=(3, 3), stride=(1, 1), padding=(1, 1), groups=50)
      (bn1): BatchNorm2d(50, eps=1e-05, momentum=0.1, affine=True, track_running_stats=True)
      (relu): ReLU()
      (conv2): Conv2d(50, 50, kernel_size=(3, 3), stride=(1, 1), padding=(1, 1))
    )
    (c4): Conv2d(50, 25, kernel_size=(3, 3), stride=(1, 1), padding=(1, 1))
    (act): LeakyReLU(negative_slope=0.05, inplace=True)
    (c5): Conv2d(100, 50, kernel_size=(1, 1), stride=(1, 1))
    (esa): ESA(
      (conv1): Conv2d(50, 12, kernel_size=(1, 1), stride=(1, 1))
      (conv_f): Conv2d(12, 12, kernel_size=(1, 1), stride=(1, 1))
      (conv_max): Conv2d(12, 12, kernel_size=(3, 3), stride=(1, 1), padding=(1, 1))
      (conv_un): PixelUnshuffle()
      (con_): Conv2d(48, 12, kernel_size=(1, 1), stride=(1, 1), padding=(1, 1))
      (conv_sh): PixelShuffle(upscale_factor=2)
      (conv4): Conv2d(12, 50, kernel_size=(1, 1), stride=(1, 1))
      (sigmoid): Sigmoid()
      (relu): ReLU(inplace=True)
    )
  )
  (B2): RFDB(
    (c1_d): Conv2d(50, 25, kernel_size=(1, 1), stride=(1, 1))
    (c1_rfdb): Residual(
      (conv1): Conv2d(50, 50, kernel_size=(3, 3), stride=(1, 1), padding=(1, 1), groups=50)
      (bn1): BatchNorm2d(50, eps=1e-05, momentum=0.1, affine=True, track_running_stats=True)
      (relu): ReLU()
      (conv2): Conv2d(50, 50, kernel_size=(3, 3), stride=(1, 1), padding=(1, 1))
    )
    (c2_d): Conv2d(50, 25, kernel_size=(1, 1), stride=(1, 1))
    (c2_rfdb): Residual(
      (conv1): Conv2d(50, 50, kernel_size=(3, 3), stride=(1, 1), padding=(1, 1), groups=50)
      (bn1): BatchNorm2d(50, eps=1e-05, momentum=0.1, affine=True, track_running_stats=True)
      (relu): ReLU()
      (conv2): Conv2d(50, 50, kernel_size=(3, 3), stride=(1, 1), padding=(1, 1))
    )
    (c3_d): Conv2d(50, 25, kernel_size=(1, 1), stride=(1, 1))
    (c3_rfdb): Residual(
      (conv1): Conv2d(50, 50, kernel_size=(3, 3), stride=(1, 1), padding=(1, 1), groups=50)
      (bn1): BatchNorm2d(50, eps=1e-05, momentum=0.1, affine=True, track_running_stats=True)
      (relu): ReLU()
      (conv2): Conv2d(50, 50, kernel_size=(3, 3), stride=(1, 1), padding=(1, 1))
    )
    (c4): Conv2d(50, 25, kernel_size=(3, 3), stride=(1, 1), padding=(1, 1))
    (act): LeakyReLU(negative_slope=0.05, inplace=True)
    (c5): Conv2d(100, 50, kernel_size=(1, 1), stride=(1, 1))
    (esa): ESA(
      (conv1): Conv2d(50, 12, kernel_size=(1, 1), stride=(1, 1))
      (conv_f): Conv2d(12, 12, kernel_size=(1, 1), stride=(1, 1))
      (conv_max): Conv2d(12, 12, kernel_size=(3, 3), stride=(1, 1), padding=(1, 1))
      (conv_un): PixelUnshuffle()
      (con_): Conv2d(48, 12, kernel_size=(1, 1), stride=(1, 1), padding=(1, 1))
      (conv_sh): PixelShuffle(upscale_factor=2)
      (conv4): Conv2d(12, 50, kernel_size=(1, 1), stride=(1, 1))
      (sigmoid): Sigmoid()
      (relu): ReLU(inplace=True)
    )
  )
  (B3): RFDB(
    (c1_d): Conv2d(50, 25, kernel_size=(1, 1), stride=(1, 1))
    (c1_rfdb): Residual(
      (conv1): Conv2d(50, 50, kernel_size=(3, 3), stride=(1, 1), padding=(1, 1), groups=50)
      (bn1): BatchNorm2d(50, eps=1e-05, momentum=0.1, affine=True, track_running_stats=True)
      (relu): ReLU()
      (conv2): Conv2d(50, 50, kernel_size=(3, 3), stride=(1, 1), padding=(1, 1))
    )
    (c2_d): Conv2d(50, 25, kernel_size=(1, 1), stride=(1, 1))
    (c2_rfdb): Residual(
      (conv1): Conv2d(50, 50, kernel_size=(3, 3), stride=(1, 1), padding=(1, 1), groups=50)
      (bn1): BatchNorm2d(50, eps=1e-05, momentum=0.1, affine=True, track_running_stats=True)
      (relu): ReLU()
      (conv2): Conv2d(50, 50, kernel_size=(3, 3), stride=(1, 1), padding=(1, 1))
    )
    (c3_d): Conv2d(50, 25, kernel_size=(1, 1), stride=(1, 1))
    (c3_rfdb): Residual(
      (conv1): Conv2d(50, 50, kernel_size=(3, 3), stride=(1, 1), padding=(1, 1), groups=50)
      (bn1): BatchNorm2d(50, eps=1e-05, momentum=0.1, affine=True, track_running_stats=True)
      (relu): ReLU()
      (conv2): Conv2d(50, 50, kernel_size=(3, 3), stride=(1, 1), padding=(1, 1))
    )
    (c4): Conv2d(50, 25, kernel_size=(3, 3), stride=(1, 1), padding=(1, 1))
    (act): LeakyReLU(negative_slope=0.05, inplace=True)
    (c5): Conv2d(100, 50, kernel_size=(1, 1), stride=(1, 1))
    (esa): ESA(
      (conv1): Conv2d(50, 12, kernel_size=(1, 1), stride=(1, 1))
      (conv_f): Conv2d(12, 12, kernel_size=(1, 1), stride=(1, 1))
      (conv_max): Conv2d(12, 12, kernel_size=(3, 3), stride=(1, 1), padding=(1, 1))
      (conv_un): PixelUnshuffle()
      (con_): Conv2d(48, 12, kernel_size=(1, 1), stride=(1, 1), padding=(1, 1))
      (conv_sh): PixelShuffle(upscale_factor=2)
      (conv4): Conv2d(12, 50, kernel_size=(1, 1), stride=(1, 1))
      (sigmoid): Sigmoid()
      (relu): ReLU(inplace=True)
    )
  )
  (B4): RFDB(
    (c1_d): Conv2d(50, 25, kernel_size=(1, 1), stride=(1, 1))
    (c1_rfdb): Residual(
      (conv1): Conv2d(50, 50, kernel_size=(3, 3), stride=(1, 1), padding=(1, 1), groups=50)
      (bn1): BatchNorm2d(50, eps=1e-05, momentum=0.1, affine=True, track_running_stats=True)
      (relu): ReLU()
      (conv2): Conv2d(50, 50, kernel_size=(3, 3), stride=(1, 1), padding=(1, 1))
    )
    (c2_d): Conv2d(50, 25, kernel_size=(1, 1), stride=(1, 1))
    (c2_rfdb): Residual(
      (conv1): Conv2d(50, 50, kernel_size=(3, 3), stride=(1, 1), padding=(1, 1), groups=50)
      (bn1): BatchNorm2d(50, eps=1e-05, momentum=0.1, affine=True, track_running_stats=True)
      (relu): ReLU()
      (conv2): Conv2d(50, 50, kernel_size=(3, 3), stride=(1, 1), padding=(1, 1))
    )
    (c3_d): Conv2d(50, 25, kernel_size=(1, 1), stride=(1, 1))
    (c3_rfdb): Residual(
      (conv1): Conv2d(50, 50, kernel_size=(3, 3), stride=(1, 1), padding=(1, 1), groups=50)
      (bn1): BatchNorm2d(50, eps=1e-05, momentum=0.1, affine=True, track_running_stats=True)
      (relu): ReLU()
      (conv2): Conv2d(50, 50, kernel_size=(3, 3), stride=(1, 1), padding=(1, 1))
    )
    (c4): Conv2d(50, 25, kernel_size=(3, 3), stride=(1, 1), padding=(1, 1))
    (act): LeakyReLU(negative_slope=0.05, inplace=True)
    (c5): Conv2d(100, 50, kernel_size=(1, 1), stride=(1, 1))
    (esa): ESA(
      (conv1): Conv2d(50, 12, kernel_size=(1, 1), stride=(1, 1))
      (conv_f): Conv2d(12, 12, kernel_size=(1, 1), stride=(1, 1))
      (conv_max): Conv2d(12, 12, kernel_size=(3, 3), stride=(1, 1), padding=(1, 1))
      (conv_un): PixelUnshuffle()
      (con_): Conv2d(48, 12, kernel_size=(1, 1), stride=(1, 1), padding=(1, 1))
      (conv_sh): PixelShuffle(upscale_factor=2)
      (conv4): Conv2d(12, 50, kernel_size=(1, 1), stride=(1, 1))
      (sigmoid): Sigmoid()
      (relu): ReLU(inplace=True)
    )
  )
  (c): Sequential(
    (0): Conv2d(200, 50, kernel_size=(1, 1), stride=(1, 1))
    (1): LeakyReLU(negative_slope=0.05, inplace=True)
  )
  (LR_conv): Conv2d(50, 50, kernel_size=(3, 3), stride=(1, 1), padding=(1, 1))
  (upsampler): Sequential(
    (0): Conv2d(50, 48, kernel_size=(3, 3), stride=(1, 1), padding=(1, 1))
    (1): PixelShuffle(upscale_factor=4)
  )
)
[Epoch 1]	Learning rate: 1.00e-4
DDRFN(
  (fea_conv): Conv2d(3, 50, kernel_size=(3, 3), stride=(1, 1), padding=(1, 1))
  (B1): RFDB(
    (c1_d): Conv2d(50, 25, kernel_size=(1, 1), stride=(1, 1))
    (c1_r): Conv2d(50, 50, kernel_size=(3, 3), stride=(1, 1), padding=(1, 1))
    (c2_d): Conv2d(50, 25, kernel_size=(1, 1), stride=(1, 1))
    (c2_r): Conv2d(50, 50, kernel_size=(3, 3), stride=(1, 1), padding=(1, 1))
    (c3_d): Conv2d(50, 25, kernel_size=(1, 1), stride=(1, 1))
    (c3_r): Conv2d(50, 50, kernel_size=(3, 3), stride=(1, 1), padding=(1, 1))
    (c4): Conv2d(50, 25, kernel_size=(3, 3), stride=(1, 1), padding=(1, 1))
    (act): LeakyReLU(negative_slope=0.05, inplace=True)
    (c5): Conv2d(100, 50, kernel_size=(1, 1), stride=(1, 1))
    (esa): ESA(
      (conv1): Conv2d(50, 12, kernel_size=(1, 1), stride=(1, 1))
      (conv_f): Conv2d(12, 12, kernel_size=(1, 1), stride=(1, 1))
      (conv_max): Conv2d(12, 12, kernel_size=(3, 3), stride=(1, 1), padding=(1, 1))
      (conv2): Conv2d(12, 12, kernel_size=(3, 3), stride=(2, 2))
      (conv3): Conv2d(12, 12, kernel_size=(3, 3), stride=(1, 1), padding=(1, 1))
      (conv3_): Conv2d(12, 12, kernel_size=(3, 3), stride=(1, 1), padding=(1, 1))
      (conv4): Conv2d(12, 50, kernel_size=(1, 1), stride=(1, 1))
      (sigmoid): Sigmoid()
      (relu): ReLU(inplace=True)
    )
  )
  (B2): RFDB(
    (c1_d): Conv2d(50, 25, kernel_size=(1, 1), stride=(1, 1))
    (c1_r): Conv2d(50, 50, kernel_size=(3, 3), stride=(1, 1), padding=(1, 1))
    (c2_d): Conv2d(50, 25, kernel_size=(1, 1), stride=(1, 1))
    (c2_r): Conv2d(50, 50, kernel_size=(3, 3), stride=(1, 1), padding=(1, 1))
    (c3_d): Conv2d(50, 25, kernel_size=(1, 1), stride=(1, 1))
    (c3_r): Conv2d(50, 50, kernel_size=(3, 3), stride=(1, 1), padding=(1, 1))
    (c4): Conv2d(50, 25, kernel_size=(3, 3), stride=(1, 1), padding=(1, 1))
    (act): LeakyReLU(negative_slope=0.05, inplace=True)
    (c5): Conv2d(100, 50, kernel_size=(1, 1), stride=(1, 1))
    (esa): ESA(
      (conv1): Conv2d(50, 12, kernel_size=(1, 1), stride=(1, 1))
      (conv_f): Conv2d(12, 12, kernel_size=(1, 1), stride=(1, 1))
      (conv_max): Conv2d(12, 12, kernel_size=(3, 3), stride=(1, 1), padding=(1, 1))
      (conv2): Conv2d(12, 12, kernel_size=(3, 3), stride=(2, 2))
      (conv3): Conv2d(12, 12, kernel_size=(3, 3), stride=(1, 1), padding=(1, 1))
      (conv3_): Conv2d(12, 12, kernel_size=(3, 3), stride=(1, 1), padding=(1, 1))
      (conv4): Conv2d(12, 50, kernel_size=(1, 1), stride=(1, 1))
      (sigmoid): Sigmoid()
      (relu): ReLU(inplace=True)
    )
  )
  (B3): RFDB(
    (c1_d): Conv2d(50, 25, kernel_size=(1, 1), stride=(1, 1))
    (c1_r): Conv2d(50, 50, kernel_size=(3, 3), stride=(1, 1), padding=(1, 1))
    (c2_d): Conv2d(50, 25, kernel_size=(1, 1), stride=(1, 1))
    (c2_r): Conv2d(50, 50, kernel_size=(3, 3), stride=(1, 1), padding=(1, 1))
    (c3_d): Conv2d(50, 25, kernel_size=(1, 1), stride=(1, 1))
    (c3_r): Conv2d(50, 50, kernel_size=(3, 3), stride=(1, 1), padding=(1, 1))
    (c4): Conv2d(50, 25, kernel_size=(3, 3), stride=(1, 1), padding=(1, 1))
    (act): LeakyReLU(negative_slope=0.05, inplace=True)
    (c5): Conv2d(100, 50, kernel_size=(1, 1), stride=(1, 1))
    (esa): ESA(
      (conv1): Conv2d(50, 12, kernel_size=(1, 1), stride=(1, 1))
      (conv_f): Conv2d(12, 12, kernel_size=(1, 1), stride=(1, 1))
      (conv_max): Conv2d(12, 12, kernel_size=(3, 3), stride=(1, 1), padding=(1, 1))
      (conv2): Conv2d(12, 12, kernel_size=(3, 3), stride=(2, 2))
      (conv3): Conv2d(12, 12, kernel_size=(3, 3), stride=(1, 1), padding=(1, 1))
      (conv3_): Conv2d(12, 12, kernel_size=(3, 3), stride=(1, 1), padding=(1, 1))
      (conv4): Conv2d(12, 50, kernel_size=(1, 1), stride=(1, 1))
      (sigmoid): Sigmoid()
      (relu): ReLU(inplace=True)
    )
  )
  (B4): RFDB(
    (c1_d): Conv2d(50, 25, kernel_size=(1, 1), stride=(1, 1))
    (c1_r): Conv2d(50, 50, kernel_size=(3, 3), stride=(1, 1), padding=(1, 1))
    (c2_d): Conv2d(50, 25, kernel_size=(1, 1), stride=(1, 1))
    (c2_r): Conv2d(50, 50, kernel_size=(3, 3), stride=(1, 1), padding=(1, 1))
    (c3_d): Conv2d(50, 25, kernel_size=(1, 1), stride=(1, 1))
    (c3_r): Conv2d(50, 50, kernel_size=(3, 3), stride=(1, 1), padding=(1, 1))
    (c4): Conv2d(50, 25, kernel_size=(3, 3), stride=(1, 1), padding=(1, 1))
    (act): LeakyReLU(negative_slope=0.05, inplace=True)
    (c5): Conv2d(100, 50, kernel_size=(1, 1), stride=(1, 1))
    (esa): ESA(
      (conv1): Conv2d(50, 12, kernel_size=(1, 1), stride=(1, 1))
      (conv_f): Conv2d(12, 12, kernel_size=(1, 1), stride=(1, 1))
      (conv_max): Conv2d(12, 12, kernel_size=(3, 3), stride=(1, 1), padding=(1, 1))
      (conv2): Conv2d(12, 12, kernel_size=(3, 3), stride=(2, 2))
      (conv3): Conv2d(12, 12, kernel_size=(3, 3), stride=(1, 1), padding=(1, 1))
      (conv3_): Conv2d(12, 12, kernel_size=(3, 3), stride=(1, 1), padding=(1, 1))
      (conv4): Conv2d(12, 50, kernel_size=(1, 1), stride=(1, 1))
      (sigmoid): Sigmoid()
      (relu): ReLU(inplace=True)
    )
  )
  (c): Sequential(
    (0): Conv2d(200, 50, kernel_size=(1, 1), stride=(1, 1))
    (1): LeakyReLU(negative_slope=0.05, inplace=True)
  )
  (LR_conv): Conv2d(50, 50, kernel_size=(3, 3), stride=(1, 1), padding=(1, 1))
  (upsampler): Sequential(
    (0): Conv2d(50, 48, kernel_size=(3, 3), stride=(1, 1), padding=(1, 1))
    (1): PixelShuffle(upscale_factor=4)
  )
)
[Epoch 1]	Learning rate: 1.00e-4
[1600/15800]	[L1: 43.4531]	11.8+11.0s
[3200/15800]	[L1: 31.1659]	3.8+0.6s
[4800/15800]	[L1: 25.9645]	3.7+0.6s
[6400/15800]	[L1: 22.7371]	3.7+0.6s
[8000/15800]	[L1: 20.4770]	3.4+0.7s
[9600/15800]	[L1: 18.8140]	3.4+0.7s
[11200/15800]	[L1: 17.5283]	3.4+0.7s
[12800/15800]	[L1: 16.5148]	3.4+0.7s
[14400/15800]	[L1: 15.7536]	3.4+0.7s

Evaluation:
[DIV2K x4]	PSNR: 26.835 (Best: 26.835 @epoch 1)
Forward: 4.20s

Saving...
Total: 4.87s

[Epoch 2]	Learning rate: 1.00e-4
[1600/15800]	[L1: 8.8764]	3.7+9.7s
[3200/15800]	[L1: 9.0053]	3.6+0.6s
[4800/15800]	[L1: 8.9179]	3.6+0.6s
[6400/15800]	[L1: 8.8525]	3.5+0.6s
[8000/15800]	[L1: 8.8278]	3.6+0.6s
[9600/15800]	[L1: 8.7480]	3.6+0.7s
[11200/15800]	[L1: 8.6844]	3.7+0.6s
[12800/15800]	[L1: 8.6386]	4.0+0.6s
[14400/15800]	[L1: 8.6056]	3.8+0.6s
DDRFN(
  (fea_conv): Conv2d(3, 50, kernel_size=(3, 3), stride=(1, 1), padding=(1, 1))
  (B1): RFDB(
    (c1_d): Conv2d(50, 25, kernel_size=(1, 1), stride=(1, 1))
    (c1_r): Sequential(
      (0): Conv2d(50, 50, kernel_size=(3, 3), stride=(1, 1), padding=(1, 1))
      (1): Conv2d(50, 50, kernel_size=(1, 1), stride=(1, 1))
    )
    (c2_d): Conv2d(50, 25, kernel_size=(1, 1), stride=(1, 1))
    (c2_r): Sequential(
      (0): Conv2d(50, 50, kernel_size=(3, 3), stride=(1, 1), padding=(1, 1))
      (1): Conv2d(50, 50, kernel_size=(1, 1), stride=(1, 1))
    )
    (c3_d): Conv2d(50, 25, kernel_size=(1, 1), stride=(1, 1))
    (c3_r): Sequential(
      (0): Conv2d(50, 50, kernel_size=(3, 3), stride=(1, 1), padding=(1, 1))
      (1): Conv2d(50, 50, kernel_size=(1, 1), stride=(1, 1))
    )
    (c4): Sequential(
      (0): Conv2d(50, 50, kernel_size=(3, 3), stride=(1, 1), padding=(1, 1))
      (1): Conv2d(50, 25, kernel_size=(1, 1), stride=(1, 1))
    )
    (act): LeakyReLU(negative_slope=0.05, inplace=True)
    (c5): Conv2d(100, 50, kernel_size=(1, 1), stride=(1, 1))
    (esa): ESA(
      (conv1): Conv2d(50, 12, kernel_size=(1, 1), stride=(1, 1))
      (conv_f): Conv2d(12, 12, kernel_size=(1, 1), stride=(1, 1))
      (conv_max): Conv2d(12, 12, kernel_size=(3, 3), stride=(1, 1), padding=(1, 1))
      (conv2): Conv2d(12, 12, kernel_size=(3, 3), stride=(2, 2))
      (conv3): Conv2d(12, 12, kernel_size=(3, 3), stride=(1, 1), padding=(1, 1))
      (conv3_): Conv2d(12, 12, kernel_size=(3, 3), stride=(1, 1), padding=(1, 1))
      (conv4): Conv2d(12, 50, kernel_size=(1, 1), stride=(1, 1))
      (sigmoid): Sigmoid()
      (relu): ReLU(inplace=True)
    )
  )
  (B2): RFDB(
    (c1_d): Conv2d(50, 25, kernel_size=(1, 1), stride=(1, 1))
    (c1_r): Sequential(
      (0): Conv2d(50, 50, kernel_size=(3, 3), stride=(1, 1), padding=(1, 1))
      (1): Conv2d(50, 50, kernel_size=(1, 1), stride=(1, 1))
    )
    (c2_d): Conv2d(50, 25, kernel_size=(1, 1), stride=(1, 1))
    (c2_r): Sequential(
      (0): Conv2d(50, 50, kernel_size=(3, 3), stride=(1, 1), padding=(1, 1))
      (1): Conv2d(50, 50, kernel_size=(1, 1), stride=(1, 1))
    )
    (c3_d): Conv2d(50, 25, kernel_size=(1, 1), stride=(1, 1))
    (c3_r): Sequential(
      (0): Conv2d(50, 50, kernel_size=(3, 3), stride=(1, 1), padding=(1, 1))
      (1): Conv2d(50, 50, kernel_size=(1, 1), stride=(1, 1))
    )
    (c4): Sequential(
      (0): Conv2d(50, 50, kernel_size=(3, 3), stride=(1, 1), padding=(1, 1))
      (1): Conv2d(50, 25, kernel_size=(1, 1), stride=(1, 1))
    )
    (act): LeakyReLU(negative_slope=0.05, inplace=True)
    (c5): Conv2d(100, 50, kernel_size=(1, 1), stride=(1, 1))
    (esa): ESA(
      (conv1): Conv2d(50, 12, kernel_size=(1, 1), stride=(1, 1))
      (conv_f): Conv2d(12, 12, kernel_size=(1, 1), stride=(1, 1))
      (conv_max): Conv2d(12, 12, kernel_size=(3, 3), stride=(1, 1), padding=(1, 1))
      (conv2): Conv2d(12, 12, kernel_size=(3, 3), stride=(2, 2))
      (conv3): Conv2d(12, 12, kernel_size=(3, 3), stride=(1, 1), padding=(1, 1))
      (conv3_): Conv2d(12, 12, kernel_size=(3, 3), stride=(1, 1), padding=(1, 1))
      (conv4): Conv2d(12, 50, kernel_size=(1, 1), stride=(1, 1))
      (sigmoid): Sigmoid()
      (relu): ReLU(inplace=True)
    )
  )
  (c): Sequential(
    (0): Conv2d(200, 50, kernel_size=(1, 1), stride=(1, 1))
    (1): LeakyReLU(negative_slope=0.05, inplace=True)
  )
  (LR_conv): Conv2d(50, 50, kernel_size=(3, 3), stride=(1, 1), padding=(1, 1))
  (upsampler): Sequential(
    (0): Conv2d(50, 48, kernel_size=(3, 3), stride=(1, 1), padding=(1, 1))
    (1): PixelShuffle(upscale_factor=4)
  )
)
[Epoch 1]	Learning rate: 1.00e-4
DDRFN(
  (fea_conv): Conv2d(3, 50, kernel_size=(3, 3), stride=(1, 1), padding=(1, 1))
  (B1): RFDB(
    (c1_d): Conv2d(50, 25, kernel_size=(1, 1), stride=(1, 1))
    (c1_r): Sequential(
      (0): Conv2d(50, 50, kernel_size=(3, 3), stride=(1, 1), padding=(1, 1))
      (1): Conv2d(50, 50, kernel_size=(1, 1), stride=(1, 1))
    )
    (c2_d): Conv2d(50, 25, kernel_size=(1, 1), stride=(1, 1))
    (c2_r): Sequential(
      (0): Conv2d(50, 50, kernel_size=(3, 3), stride=(1, 1), padding=(1, 1))
      (1): Conv2d(50, 50, kernel_size=(1, 1), stride=(1, 1))
    )
    (c3_d): Conv2d(50, 25, kernel_size=(1, 1), stride=(1, 1))
    (c3_r): Sequential(
      (0): Conv2d(50, 50, kernel_size=(3, 3), stride=(1, 1), padding=(1, 1))
      (1): Conv2d(50, 50, kernel_size=(1, 1), stride=(1, 1))
    )
    (c4): Sequential(
      (0): Conv2d(50, 50, kernel_size=(3, 3), stride=(1, 1), padding=(1, 1))
      (1): Conv2d(50, 25, kernel_size=(1, 1), stride=(1, 1))
    )
    (act): LeakyReLU(negative_slope=0.05, inplace=True)
    (c5): Conv2d(100, 50, kernel_size=(1, 1), stride=(1, 1))
    (esa): ESA(
      (conv1): Conv2d(50, 12, kernel_size=(1, 1), stride=(1, 1))
      (conv_f): Conv2d(12, 12, kernel_size=(1, 1), stride=(1, 1))
      (conv_max): Conv2d(12, 12, kernel_size=(3, 3), stride=(1, 1), padding=(1, 1))
      (conv2): Conv2d(12, 12, kernel_size=(3, 3), stride=(2, 2))
      (conv3): Conv2d(12, 12, kernel_size=(3, 3), stride=(1, 1), padding=(1, 1))
      (conv3_): Conv2d(12, 12, kernel_size=(3, 3), stride=(1, 1), padding=(1, 1))
      (conv4): Conv2d(12, 50, kernel_size=(1, 1), stride=(1, 1))
      (sigmoid): Sigmoid()
      (relu): ReLU(inplace=True)
    )
  )
  (B2): RFDB(
    (c1_d): Conv2d(50, 25, kernel_size=(1, 1), stride=(1, 1))
    (c1_r): Sequential(
      (0): Conv2d(50, 50, kernel_size=(3, 3), stride=(1, 1), padding=(1, 1))
      (1): Conv2d(50, 50, kernel_size=(1, 1), stride=(1, 1))
    )
    (c2_d): Conv2d(50, 25, kernel_size=(1, 1), stride=(1, 1))
    (c2_r): Sequential(
      (0): Conv2d(50, 50, kernel_size=(3, 3), stride=(1, 1), padding=(1, 1))
      (1): Conv2d(50, 50, kernel_size=(1, 1), stride=(1, 1))
    )
    (c3_d): Conv2d(50, 25, kernel_size=(1, 1), stride=(1, 1))
    (c3_r): Sequential(
      (0): Conv2d(50, 50, kernel_size=(3, 3), stride=(1, 1), padding=(1, 1))
      (1): Conv2d(50, 50, kernel_size=(1, 1), stride=(1, 1))
    )
    (c4): Sequential(
      (0): Conv2d(50, 50, kernel_size=(3, 3), stride=(1, 1), padding=(1, 1))
      (1): Conv2d(50, 25, kernel_size=(1, 1), stride=(1, 1))
    )
    (act): LeakyReLU(negative_slope=0.05, inplace=True)
    (c5): Conv2d(100, 50, kernel_size=(1, 1), stride=(1, 1))
    (esa): ESA(
      (conv1): Conv2d(50, 12, kernel_size=(1, 1), stride=(1, 1))
      (conv_f): Conv2d(12, 12, kernel_size=(1, 1), stride=(1, 1))
      (conv_max): Conv2d(12, 12, kernel_size=(3, 3), stride=(1, 1), padding=(1, 1))
      (conv2): Conv2d(12, 12, kernel_size=(3, 3), stride=(2, 2))
      (conv3): Conv2d(12, 12, kernel_size=(3, 3), stride=(1, 1), padding=(1, 1))
      (conv3_): Conv2d(12, 12, kernel_size=(3, 3), stride=(1, 1), padding=(1, 1))
      (conv4): Conv2d(12, 50, kernel_size=(1, 1), stride=(1, 1))
      (sigmoid): Sigmoid()
      (relu): ReLU(inplace=True)
    )
  )
  (c): Sequential(
    (0): Conv2d(200, 50, kernel_size=(1, 1), stride=(1, 1))
    (1): LeakyReLU(negative_slope=0.05, inplace=True)
  )
  (LR_conv): Conv2d(50, 50, kernel_size=(3, 3), stride=(1, 1), padding=(1, 1))
  (upsampler): Sequential(
    (0): Conv2d(50, 48, kernel_size=(3, 3), stride=(1, 1), padding=(1, 1))
    (1): PixelShuffle(upscale_factor=4)
  )
)
[Epoch 1]	Learning rate: 1.00e-4
DDRFN(
  (fea_conv): Conv2d(3, 50, kernel_size=(3, 3), stride=(1, 1), padding=(1, 1))
  (B1): RFDB(
    (c1_d): Conv2d(50, 25, kernel_size=(1, 1), stride=(1, 1))
    (c1_r): Sequential(
      (0): Conv2d(50, 50, kernel_size=(3, 3), stride=(1, 1), padding=(1, 1))
      (1): Conv2d(50, 50, kernel_size=(1, 1), stride=(1, 1))
    )
    (c2_d): Conv2d(50, 25, kernel_size=(1, 1), stride=(1, 1))
    (c2_r): Sequential(
      (0): Conv2d(50, 50, kernel_size=(3, 3), stride=(1, 1), padding=(1, 1))
      (1): Conv2d(50, 50, kernel_size=(1, 1), stride=(1, 1))
    )
    (c3_d): Conv2d(50, 25, kernel_size=(1, 1), stride=(1, 1))
    (c3_r): Sequential(
      (0): Conv2d(50, 50, kernel_size=(3, 3), stride=(1, 1), padding=(1, 1))
      (1): Conv2d(50, 50, kernel_size=(1, 1), stride=(1, 1))
    )
    (c4): Sequential(
      (0): Conv2d(50, 50, kernel_size=(3, 3), stride=(1, 1), padding=(1, 1))
      (1): Conv2d(50, 25, kernel_size=(1, 1), stride=(1, 1))
    )
    (act): LeakyReLU(negative_slope=0.05, inplace=True)
    (c5): Conv2d(100, 50, kernel_size=(1, 1), stride=(1, 1))
    (esa): ESA(
      (conv1): Conv2d(50, 12, kernel_size=(1, 1), stride=(1, 1))
      (conv_f): Conv2d(12, 12, kernel_size=(1, 1), stride=(1, 1))
      (conv_max): Conv2d(12, 12, kernel_size=(3, 3), stride=(1, 1), padding=(1, 1))
      (conv2): Conv2d(12, 12, kernel_size=(3, 3), stride=(2, 2))
      (conv3): Conv2d(12, 12, kernel_size=(3, 3), stride=(1, 1), padding=(1, 1))
      (conv3_): Conv2d(12, 12, kernel_size=(3, 3), stride=(1, 1), padding=(1, 1))
      (conv4): Conv2d(12, 50, kernel_size=(1, 1), stride=(1, 1))
      (sigmoid): Sigmoid()
      (relu): ReLU(inplace=True)
    )
  )
  (B2): RFDB(
    (c1_d): Conv2d(50, 25, kernel_size=(1, 1), stride=(1, 1))
    (c1_r): Sequential(
      (0): Conv2d(50, 50, kernel_size=(3, 3), stride=(1, 1), padding=(1, 1))
      (1): Conv2d(50, 50, kernel_size=(1, 1), stride=(1, 1))
    )
    (c2_d): Conv2d(50, 25, kernel_size=(1, 1), stride=(1, 1))
    (c2_r): Sequential(
      (0): Conv2d(50, 50, kernel_size=(3, 3), stride=(1, 1), padding=(1, 1))
      (1): Conv2d(50, 50, kernel_size=(1, 1), stride=(1, 1))
    )
    (c3_d): Conv2d(50, 25, kernel_size=(1, 1), stride=(1, 1))
    (c3_r): Sequential(
      (0): Conv2d(50, 50, kernel_size=(3, 3), stride=(1, 1), padding=(1, 1))
      (1): Conv2d(50, 50, kernel_size=(1, 1), stride=(1, 1))
    )
    (c4): Sequential(
      (0): Conv2d(50, 50, kernel_size=(3, 3), stride=(1, 1), padding=(1, 1))
      (1): Conv2d(50, 25, kernel_size=(1, 1), stride=(1, 1))
    )
    (act): LeakyReLU(negative_slope=0.05, inplace=True)
    (c5): Conv2d(100, 50, kernel_size=(1, 1), stride=(1, 1))
    (esa): ESA(
      (conv1): Conv2d(50, 12, kernel_size=(1, 1), stride=(1, 1))
      (conv_f): Conv2d(12, 12, kernel_size=(1, 1), stride=(1, 1))
      (conv_max): Conv2d(12, 12, kernel_size=(3, 3), stride=(1, 1), padding=(1, 1))
      (conv2): Conv2d(12, 12, kernel_size=(3, 3), stride=(2, 2))
      (conv3): Conv2d(12, 12, kernel_size=(3, 3), stride=(1, 1), padding=(1, 1))
      (conv3_): Conv2d(12, 12, kernel_size=(3, 3), stride=(1, 1), padding=(1, 1))
      (conv4): Conv2d(12, 50, kernel_size=(1, 1), stride=(1, 1))
      (sigmoid): Sigmoid()
      (relu): ReLU(inplace=True)
    )
  )
  (c): Sequential(
    (0): Conv2d(200, 50, kernel_size=(1, 1), stride=(1, 1))
    (1): LeakyReLU(negative_slope=0.05, inplace=True)
  )
  (LR_conv): Conv2d(50, 50, kernel_size=(3, 3), stride=(1, 1), padding=(1, 1))
  (upsampler): Sequential(
    (0): Conv2d(50, 48, kernel_size=(3, 3), stride=(1, 1), padding=(1, 1))
    (1): PixelShuffle(upscale_factor=4)
  )
)
[Epoch 1]	Learning rate: 1.00e-4
DDRFN(
  (fea_conv): Conv2d(3, 50, kernel_size=(3, 3), stride=(1, 1), padding=(1, 1))
  (B1): RFDB(
    (c1_d): Conv2d(50, 25, kernel_size=(1, 1), stride=(1, 1))
    (c1_r): Sequential(
      (0): Conv2d(50, 50, kernel_size=(3, 3), stride=(1, 1), padding=(1, 1))
      (1): Conv2d(50, 50, kernel_size=(1, 1), stride=(1, 1))
    )
    (c2_d): Conv2d(50, 25, kernel_size=(1, 1), stride=(1, 1))
    (c2_r): Sequential(
      (0): Conv2d(50, 50, kernel_size=(3, 3), stride=(1, 1), padding=(1, 1))
      (1): Conv2d(50, 50, kernel_size=(1, 1), stride=(1, 1))
    )
    (c3_d): Conv2d(50, 25, kernel_size=(1, 1), stride=(1, 1))
    (c3_r): Sequential(
      (0): Conv2d(50, 50, kernel_size=(3, 3), stride=(1, 1), padding=(1, 1))
      (1): Conv2d(50, 50, kernel_size=(1, 1), stride=(1, 1))
    )
    (c4): Sequential(
      (0): Conv2d(50, 50, kernel_size=(3, 3), stride=(1, 1), padding=(1, 1))
      (1): Conv2d(50, 25, kernel_size=(1, 1), stride=(1, 1))
    )
    (act): LeakyReLU(negative_slope=0.05, inplace=True)
    (c5): Conv2d(100, 50, kernel_size=(1, 1), stride=(1, 1))
    (esa): ESA(
      (conv1): Conv2d(50, 12, kernel_size=(1, 1), stride=(1, 1))
      (conv_f): Conv2d(12, 12, kernel_size=(1, 1), stride=(1, 1))
      (conv_max): Conv2d(12, 12, kernel_size=(3, 3), stride=(1, 1), padding=(1, 1))
      (conv2): Conv2d(12, 12, kernel_size=(3, 3), stride=(2, 2))
      (conv3): Conv2d(12, 12, kernel_size=(3, 3), stride=(1, 1), padding=(1, 1))
      (conv3_): Conv2d(12, 12, kernel_size=(3, 3), stride=(1, 1), padding=(1, 1))
      (conv4): Conv2d(12, 50, kernel_size=(1, 1), stride=(1, 1))
      (sigmoid): Sigmoid()
      (relu): ReLU(inplace=True)
    )
  )
  (B2): RFDB(
    (c1_d): Conv2d(50, 25, kernel_size=(1, 1), stride=(1, 1))
    (c1_r): Sequential(
      (0): Conv2d(50, 50, kernel_size=(3, 3), stride=(1, 1), padding=(1, 1))
      (1): Conv2d(50, 50, kernel_size=(1, 1), stride=(1, 1))
    )
    (c2_d): Conv2d(50, 25, kernel_size=(1, 1), stride=(1, 1))
    (c2_r): Sequential(
      (0): Conv2d(50, 50, kernel_size=(3, 3), stride=(1, 1), padding=(1, 1))
      (1): Conv2d(50, 50, kernel_size=(1, 1), stride=(1, 1))
    )
    (c3_d): Conv2d(50, 25, kernel_size=(1, 1), stride=(1, 1))
    (c3_r): Sequential(
      (0): Conv2d(50, 50, kernel_size=(3, 3), stride=(1, 1), padding=(1, 1))
      (1): Conv2d(50, 50, kernel_size=(1, 1), stride=(1, 1))
    )
    (c4): Sequential(
      (0): Conv2d(50, 50, kernel_size=(3, 3), stride=(1, 1), padding=(1, 1))
      (1): Conv2d(50, 25, kernel_size=(1, 1), stride=(1, 1))
    )
    (act): LeakyReLU(negative_slope=0.05, inplace=True)
    (c5): Conv2d(100, 50, kernel_size=(1, 1), stride=(1, 1))
    (esa): ESA(
      (conv1): Conv2d(50, 12, kernel_size=(1, 1), stride=(1, 1))
      (conv_f): Conv2d(12, 12, kernel_size=(1, 1), stride=(1, 1))
      (conv_max): Conv2d(12, 12, kernel_size=(3, 3), stride=(1, 1), padding=(1, 1))
      (conv2): Conv2d(12, 12, kernel_size=(3, 3), stride=(2, 2))
      (conv3): Conv2d(12, 12, kernel_size=(3, 3), stride=(1, 1), padding=(1, 1))
      (conv3_): Conv2d(12, 12, kernel_size=(3, 3), stride=(1, 1), padding=(1, 1))
      (conv4): Conv2d(12, 50, kernel_size=(1, 1), stride=(1, 1))
      (sigmoid): Sigmoid()
      (relu): ReLU(inplace=True)
    )
  )
  (c): Sequential(
    (0): Conv2d(200, 50, kernel_size=(1, 1), stride=(1, 1))
    (1): LeakyReLU(negative_slope=0.05, inplace=True)
  )
  (LR_conv): Conv2d(50, 50, kernel_size=(3, 3), stride=(1, 1), padding=(1, 1))
  (upsampler): Sequential(
    (0): Conv2d(50, 48, kernel_size=(3, 3), stride=(1, 1), padding=(1, 1))
    (1): PixelShuffle(upscale_factor=4)
  )
)
[Epoch 1]	Learning rate: 1.00e-4
DDRFN(
  (fea_conv): Conv2d(3, 50, kernel_size=(3, 3), stride=(1, 1), padding=(1, 1))
  (B1): RFDB(
    (c1_d): Conv2d(50, 25, kernel_size=(1, 1), stride=(1, 1))
    (c1_r): Sequential(
      (0): Conv2d(50, 50, kernel_size=(3, 3), stride=(1, 1), padding=(1, 1))
      (1): Conv2d(50, 50, kernel_size=(1, 1), stride=(1, 1))
    )
    (c2_d): Conv2d(50, 25, kernel_size=(1, 1), stride=(1, 1))
    (c2_r): Sequential(
      (0): Conv2d(50, 50, kernel_size=(3, 3), stride=(1, 1), padding=(1, 1))
      (1): Conv2d(50, 50, kernel_size=(1, 1), stride=(1, 1))
    )
    (c3_d): Conv2d(50, 25, kernel_size=(1, 1), stride=(1, 1))
    (c3_r): Sequential(
      (0): Conv2d(50, 50, kernel_size=(3, 3), stride=(1, 1), padding=(1, 1))
      (1): Conv2d(50, 50, kernel_size=(1, 1), stride=(1, 1))
    )
    (c4): Sequential(
      (0): Conv2d(50, 50, kernel_size=(3, 3), stride=(1, 1), padding=(1, 1))
      (1): Conv2d(50, 25, kernel_size=(1, 1), stride=(1, 1))
    )
    (act): LeakyReLU(negative_slope=0.05, inplace=True)
    (c5): Conv2d(100, 50, kernel_size=(1, 1), stride=(1, 1))
    (esa): ESA(
      (conv1): Conv2d(50, 12, kernel_size=(1, 1), stride=(1, 1))
      (conv_f): Conv2d(12, 12, kernel_size=(1, 1), stride=(1, 1))
      (conv_max): Conv2d(12, 12, kernel_size=(3, 3), stride=(1, 1), padding=(1, 1))
      (conv2): Conv2d(12, 12, kernel_size=(3, 3), stride=(2, 2))
      (conv3): Conv2d(12, 12, kernel_size=(3, 3), stride=(1, 1), padding=(1, 1))
      (conv3_): Conv2d(12, 12, kernel_size=(3, 3), stride=(1, 1), padding=(1, 1))
      (conv4): Conv2d(12, 50, kernel_size=(1, 1), stride=(1, 1))
      (sigmoid): Sigmoid()
      (relu): ReLU(inplace=True)
    )
  )
  (B2): RFDB(
    (c1_d): Conv2d(50, 25, kernel_size=(1, 1), stride=(1, 1))
    (c1_r): Sequential(
      (0): Conv2d(50, 50, kernel_size=(3, 3), stride=(1, 1), padding=(1, 1))
      (1): Conv2d(50, 50, kernel_size=(1, 1), stride=(1, 1))
    )
    (c2_d): Conv2d(50, 25, kernel_size=(1, 1), stride=(1, 1))
    (c2_r): Sequential(
      (0): Conv2d(50, 50, kernel_size=(3, 3), stride=(1, 1), padding=(1, 1))
      (1): Conv2d(50, 50, kernel_size=(1, 1), stride=(1, 1))
    )
    (c3_d): Conv2d(50, 25, kernel_size=(1, 1), stride=(1, 1))
    (c3_r): Sequential(
      (0): Conv2d(50, 50, kernel_size=(3, 3), stride=(1, 1), padding=(1, 1))
      (1): Conv2d(50, 50, kernel_size=(1, 1), stride=(1, 1))
    )
    (c4): Sequential(
      (0): Conv2d(50, 50, kernel_size=(3, 3), stride=(1, 1), padding=(1, 1))
      (1): Conv2d(50, 25, kernel_size=(1, 1), stride=(1, 1))
    )
    (act): LeakyReLU(negative_slope=0.05, inplace=True)
    (c5): Conv2d(100, 50, kernel_size=(1, 1), stride=(1, 1))
    (esa): ESA(
      (conv1): Conv2d(50, 12, kernel_size=(1, 1), stride=(1, 1))
      (conv_f): Conv2d(12, 12, kernel_size=(1, 1), stride=(1, 1))
      (conv_max): Conv2d(12, 12, kernel_size=(3, 3), stride=(1, 1), padding=(1, 1))
      (conv2): Conv2d(12, 12, kernel_size=(3, 3), stride=(2, 2))
      (conv3): Conv2d(12, 12, kernel_size=(3, 3), stride=(1, 1), padding=(1, 1))
      (conv3_): Conv2d(12, 12, kernel_size=(3, 3), stride=(1, 1), padding=(1, 1))
      (conv4): Conv2d(12, 50, kernel_size=(1, 1), stride=(1, 1))
      (sigmoid): Sigmoid()
      (relu): ReLU(inplace=True)
    )
  )
  (B3): RFDB(
    (c1_d): Conv2d(50, 25, kernel_size=(1, 1), stride=(1, 1))
    (c1_r): Sequential(
      (0): Conv2d(50, 50, kernel_size=(3, 3), stride=(1, 1), padding=(1, 1))
      (1): Conv2d(50, 50, kernel_size=(1, 1), stride=(1, 1))
    )
    (c2_d): Conv2d(50, 25, kernel_size=(1, 1), stride=(1, 1))
    (c2_r): Sequential(
      (0): Conv2d(50, 50, kernel_size=(3, 3), stride=(1, 1), padding=(1, 1))
      (1): Conv2d(50, 50, kernel_size=(1, 1), stride=(1, 1))
    )
    (c3_d): Conv2d(50, 25, kernel_size=(1, 1), stride=(1, 1))
    (c3_r): Sequential(
      (0): Conv2d(50, 50, kernel_size=(3, 3), stride=(1, 1), padding=(1, 1))
      (1): Conv2d(50, 50, kernel_size=(1, 1), stride=(1, 1))
    )
    (c4): Sequential(
      (0): Conv2d(50, 50, kernel_size=(3, 3), stride=(1, 1), padding=(1, 1))
      (1): Conv2d(50, 25, kernel_size=(1, 1), stride=(1, 1))
    )
    (act): LeakyReLU(negative_slope=0.05, inplace=True)
    (c5): Conv2d(100, 50, kernel_size=(1, 1), stride=(1, 1))
    (esa): ESA(
      (conv1): Conv2d(50, 12, kernel_size=(1, 1), stride=(1, 1))
      (conv_f): Conv2d(12, 12, kernel_size=(1, 1), stride=(1, 1))
      (conv_max): Conv2d(12, 12, kernel_size=(3, 3), stride=(1, 1), padding=(1, 1))
      (conv2): Conv2d(12, 12, kernel_size=(3, 3), stride=(2, 2))
      (conv3): Conv2d(12, 12, kernel_size=(3, 3), stride=(1, 1), padding=(1, 1))
      (conv3_): Conv2d(12, 12, kernel_size=(3, 3), stride=(1, 1), padding=(1, 1))
      (conv4): Conv2d(12, 50, kernel_size=(1, 1), stride=(1, 1))
      (sigmoid): Sigmoid()
      (relu): ReLU(inplace=True)
    )
  )
  (B4): RFDB(
    (c1_d): Conv2d(50, 25, kernel_size=(1, 1), stride=(1, 1))
    (c1_r): Sequential(
      (0): Conv2d(50, 50, kernel_size=(3, 3), stride=(1, 1), padding=(1, 1))
      (1): Conv2d(50, 50, kernel_size=(1, 1), stride=(1, 1))
    )
    (c2_d): Conv2d(50, 25, kernel_size=(1, 1), stride=(1, 1))
    (c2_r): Sequential(
      (0): Conv2d(50, 50, kernel_size=(3, 3), stride=(1, 1), padding=(1, 1))
      (1): Conv2d(50, 50, kernel_size=(1, 1), stride=(1, 1))
    )
    (c3_d): Conv2d(50, 25, kernel_size=(1, 1), stride=(1, 1))
    (c3_r): Sequential(
      (0): Conv2d(50, 50, kernel_size=(3, 3), stride=(1, 1), padding=(1, 1))
      (1): Conv2d(50, 50, kernel_size=(1, 1), stride=(1, 1))
    )
    (c4): Sequential(
      (0): Conv2d(50, 50, kernel_size=(3, 3), stride=(1, 1), padding=(1, 1))
      (1): Conv2d(50, 25, kernel_size=(1, 1), stride=(1, 1))
    )
    (act): LeakyReLU(negative_slope=0.05, inplace=True)
    (c5): Conv2d(100, 50, kernel_size=(1, 1), stride=(1, 1))
    (esa): ESA(
      (conv1): Conv2d(50, 12, kernel_size=(1, 1), stride=(1, 1))
      (conv_f): Conv2d(12, 12, kernel_size=(1, 1), stride=(1, 1))
      (conv_max): Conv2d(12, 12, kernel_size=(3, 3), stride=(1, 1), padding=(1, 1))
      (conv2): Conv2d(12, 12, kernel_size=(3, 3), stride=(2, 2))
      (conv3): Conv2d(12, 12, kernel_size=(3, 3), stride=(1, 1), padding=(1, 1))
      (conv3_): Conv2d(12, 12, kernel_size=(3, 3), stride=(1, 1), padding=(1, 1))
      (conv4): Conv2d(12, 50, kernel_size=(1, 1), stride=(1, 1))
      (sigmoid): Sigmoid()
      (relu): ReLU(inplace=True)
    )
  )
  (c): Sequential(
    (0): Conv2d(200, 50, kernel_size=(1, 1), stride=(1, 1))
    (1): LeakyReLU(negative_slope=0.05, inplace=True)
  )
  (LR_conv): Conv2d(50, 50, kernel_size=(3, 3), stride=(1, 1), padding=(1, 1))
  (upsampler): Sequential(
    (0): Conv2d(50, 48, kernel_size=(3, 3), stride=(1, 1), padding=(1, 1))
    (1): PixelShuffle(upscale_factor=4)
  )
)
[Epoch 1]	Learning rate: 1.00e-4
[1600/15800]	[L1: 43.0524]	7.9+9.9s
[3200/15800]	[L1: 31.2550]	4.0+0.5s
[4800/15800]	[L1: 26.0257]	4.0+0.5s
[6400/15800]	[L1: 22.8981]	4.0+0.6s
[8000/15800]	[L1: 20.6940]	4.0+0.6s
[9600/15800]	[L1: 19.0498]	4.0+0.6s
[11200/15800]	[L1: 17.7505]	4.3+0.8s
[12800/15800]	[L1: 16.7592]	4.4+0.6s
…
[Epoch 34]	Learning rate: 1.00e-4
[1600/15800]	[L1: 6.8493]	5.8+13.2s
[3200/15800]	[L1: 6.9337]	5.6+0.6s
[4800/15800]	[L1: 6.8976]	5.7+0.6s
[6400/15800]	[L1: 6.9286]	5.6+0.5s
[8000/15800]	[L1: 6.9324]	5.5+0.5s
[9600/15800]	[L1: 6.9203]	5.7+0.5s
[11200/15800]	[L1: 6.9241]	5.8+0.5s
[12800/15800]	[L1: 6.8783]	5.6+0.5s
[14400/15800]	[L1: 6.8862]	5.8+0.5s

Evaluation:
[DIV2K x4]	PSNR: 28.899 (Best: 28.899 @epoch 34)
Forward: 5.64s

Saving...
Total: 5.99s

[Epoch 35]	Learning rate: 1.00e-4
[1600/15800]	[L1: 6.9680]	5.6+13.4s
[3200/15800]	[L1: 6.8870]	5.6+0.5s
[4800/15800]	[L1: 6.8695]	5.9+0.5s
DDRFN(
  (fea_conv): Conv2d(3, 50, kernel_size=(3, 3), stride=(1, 1), padding=(1, 1))
  (B1): RFDB(
    (c1_d): Conv2d(50, 25, kernel_size=(1, 1), stride=(1, 1))
    (c1_r): Sequential(
      (0): Conv2d(50, 50, kernel_size=(3, 3), stride=(1, 1), padding=(1, 1))
      (1): Conv2d(50, 50, kernel_size=(1, 1), stride=(1, 1))
    )
    (c2_d): Conv2d(50, 25, kernel_size=(1, 1), stride=(1, 1))
    (c2_r): Sequential(
      (0): Conv2d(50, 50, kernel_size=(3, 3), stride=(1, 1), padding=(1, 1))
      (1): Conv2d(50, 50, kernel_size=(1, 1), stride=(1, 1))
    )
    (c3_d): Conv2d(50, 25, kernel_size=(1, 1), stride=(1, 1))
    (c3_r): Sequential(
      (0): Conv2d(50, 50, kernel_size=(3, 3), stride=(1, 1), padding=(1, 1))
      (1): Conv2d(50, 50, kernel_size=(1, 1), stride=(1, 1))
    )
    (c4): Sequential(
      (0): Conv2d(50, 50, kernel_size=(3, 3), stride=(1, 1), padding=(1, 1))
      (1): Conv2d(50, 25, kernel_size=(1, 1), stride=(1, 1))
    )
    (act): LeakyReLU(negative_slope=0.05, inplace=True)
    (c5): Conv2d(100, 50, kernel_size=(1, 1), stride=(1, 1))
    (esa): ESA(
      (conv1): Conv2d(50, 12, kernel_size=(1, 1), stride=(1, 1))
      (conv_f): Conv2d(12, 12, kernel_size=(1, 1), stride=(1, 1))
      (conv_max): Conv2d(12, 12, kernel_size=(3, 3), stride=(1, 1), padding=(1, 1))
      (conv2): Conv2d(12, 12, kernel_size=(3, 3), stride=(2, 2))
      (conv3): Conv2d(12, 12, kernel_size=(3, 3), stride=(1, 1), padding=(1, 1))
      (conv3_): Conv2d(12, 12, kernel_size=(3, 3), stride=(1, 1), padding=(1, 1))
      (conv4): Conv2d(12, 50, kernel_size=(1, 1), stride=(1, 1))
      (sigmoid): Sigmoid()
      (relu): ReLU(inplace=True)
    )
  )
  (B2): RFDB(
    (c1_d): Conv2d(50, 25, kernel_size=(1, 1), stride=(1, 1))
    (c1_r): Sequential(
      (0): Conv2d(50, 50, kernel_size=(3, 3), stride=(1, 1), padding=(1, 1))
      (1): Conv2d(50, 50, kernel_size=(1, 1), stride=(1, 1))
    )
    (c2_d): Conv2d(50, 25, kernel_size=(1, 1), stride=(1, 1))
    (c2_r): Sequential(
      (0): Conv2d(50, 50, kernel_size=(3, 3), stride=(1, 1), padding=(1, 1))
      (1): Conv2d(50, 50, kernel_size=(1, 1), stride=(1, 1))
    )
    (c3_d): Conv2d(50, 25, kernel_size=(1, 1), stride=(1, 1))
    (c3_r): Sequential(
      (0): Conv2d(50, 50, kernel_size=(3, 3), stride=(1, 1), padding=(1, 1))
      (1): Conv2d(50, 50, kernel_size=(1, 1), stride=(1, 1))
    )
    (c4): Sequential(
      (0): Conv2d(50, 50, kernel_size=(3, 3), stride=(1, 1), padding=(1, 1))
      (1): Conv2d(50, 25, kernel_size=(1, 1), stride=(1, 1))
    )
    (act): LeakyReLU(negative_slope=0.05, inplace=True)
    (c5): Conv2d(100, 50, kernel_size=(1, 1), stride=(1, 1))
    (esa): ESA(
      (conv1): Conv2d(50, 12, kernel_size=(1, 1), stride=(1, 1))
      (conv_f): Conv2d(12, 12, kernel_size=(1, 1), stride=(1, 1))
      (conv_max): Conv2d(12, 12, kernel_size=(3, 3), stride=(1, 1), padding=(1, 1))
      (conv2): Conv2d(12, 12, kernel_size=(3, 3), stride=(2, 2))
      (conv3): Conv2d(12, 12, kernel_size=(3, 3), stride=(1, 1), padding=(1, 1))
      (conv3_): Conv2d(12, 12, kernel_size=(3, 3), stride=(1, 1), padding=(1, 1))
      (conv4): Conv2d(12, 50, kernel_size=(1, 1), stride=(1, 1))
      (sigmoid): Sigmoid()
      (relu): ReLU(inplace=True)
    )
  )
  (B3): RFDB(
    (c1_d): Conv2d(50, 25, kernel_size=(1, 1), stride=(1, 1))
    (c1_r): Sequential(
      (0): Conv2d(50, 50, kernel_size=(3, 3), stride=(1, 1), padding=(1, 1))
      (1): Conv2d(50, 50, kernel_size=(1, 1), stride=(1, 1))
    )
    (c2_d): Conv2d(50, 25, kernel_size=(1, 1), stride=(1, 1))
    (c2_r): Sequential(
      (0): Conv2d(50, 50, kernel_size=(3, 3), stride=(1, 1), padding=(1, 1))
      (1): Conv2d(50, 50, kernel_size=(1, 1), stride=(1, 1))
    )
    (c3_d): Conv2d(50, 25, kernel_size=(1, 1), stride=(1, 1))
    (c3_r): Sequential(
      (0): Conv2d(50, 50, kernel_size=(3, 3), stride=(1, 1), padding=(1, 1))
      (1): Conv2d(50, 50, kernel_size=(1, 1), stride=(1, 1))
    )
    (c4): Sequential(
      (0): Conv2d(50, 50, kernel_size=(3, 3), stride=(1, 1), padding=(1, 1))
      (1): Conv2d(50, 25, kernel_size=(1, 1), stride=(1, 1))
    )
    (act): LeakyReLU(negative_slope=0.05, inplace=True)
    (c5): Conv2d(100, 50, kernel_size=(1, 1), stride=(1, 1))
    (esa): ESA(
      (conv1): Conv2d(50, 12, kernel_size=(1, 1), stride=(1, 1))
      (conv_f): Conv2d(12, 12, kernel_size=(1, 1), stride=(1, 1))
      (conv_max): Conv2d(12, 12, kernel_size=(3, 3), stride=(1, 1), padding=(1, 1))
      (conv2): Conv2d(12, 12, kernel_size=(3, 3), stride=(2, 2))
      (conv3): Conv2d(12, 12, kernel_size=(3, 3), stride=(1, 1), padding=(1, 1))
      (conv3_): Conv2d(12, 12, kernel_size=(3, 3), stride=(1, 1), padding=(1, 1))
      (conv4): Conv2d(12, 50, kernel_size=(1, 1), stride=(1, 1))
      (sigmoid): Sigmoid()
      (relu): ReLU(inplace=True)
    )
  )
  (B4): RFDB(
    (c1_d): Conv2d(50, 25, kernel_size=(1, 1), stride=(1, 1))
    (c1_r): Sequential(
      (0): Conv2d(50, 50, kernel_size=(3, 3), stride=(1, 1), padding=(1, 1))
      (1): Conv2d(50, 50, kernel_size=(1, 1), stride=(1, 1))
    )
    (c2_d): Conv2d(50, 25, kernel_size=(1, 1), stride=(1, 1))
    (c2_r): Sequential(
      (0): Conv2d(50, 50, kernel_size=(3, 3), stride=(1, 1), padding=(1, 1))
      (1): Conv2d(50, 50, kernel_size=(1, 1), stride=(1, 1))
    )
    (c3_d): Conv2d(50, 25, kernel_size=(1, 1), stride=(1, 1))
    (c3_r): Sequential(
      (0): Conv2d(50, 50, kernel_size=(3, 3), stride=(1, 1), padding=(1, 1))
      (1): Conv2d(50, 50, kernel_size=(1, 1), stride=(1, 1))
    )
    (c4): Sequential(
      (0): Conv2d(50, 50, kernel_size=(3, 3), stride=(1, 1), padding=(1, 1))
      (1): Conv2d(50, 25, kernel_size=(1, 1), stride=(1, 1))
    )
    (act): LeakyReLU(negative_slope=0.05, inplace=True)
    (c5): Conv2d(100, 50, kernel_size=(1, 1), stride=(1, 1))
    (esa): ESA(
      (conv1): Conv2d(50, 12, kernel_size=(1, 1), stride=(1, 1))
      (conv_f): Conv2d(12, 12, kernel_size=(1, 1), stride=(1, 1))
      (conv_max): Conv2d(12, 12, kernel_size=(3, 3), stride=(1, 1), padding=(1, 1))
      (conv2): Conv2d(12, 12, kernel_size=(3, 3), stride=(2, 2))
      (conv3): Conv2d(12, 12, kernel_size=(3, 3), stride=(1, 1), padding=(1, 1))
      (conv3_): Conv2d(12, 12, kernel_size=(3, 3), stride=(1, 1), padding=(1, 1))
      (conv4): Conv2d(12, 50, kernel_size=(1, 1), stride=(1, 1))
      (sigmoid): Sigmoid()
      (relu): ReLU(inplace=True)
    )
  )
  (c): Sequential(
    (0): Conv2d(200, 50, kernel_size=(1, 1), stride=(1, 1))
    (1): LeakyReLU(negative_slope=0.05, inplace=True)
  )
  (LR_conv): Conv2d(50, 50, kernel_size=(3, 3), stride=(1, 1), padding=(1, 1))
  (upsampler): Sequential(
    (0): Conv2d(50, 48, kernel_size=(3, 3), stride=(1, 1), padding=(1, 1))
    (1): PixelShuffle(upscale_factor=4)
  )
)
[Epoch 1]	Learning rate: 1.00e-4
[1600/15800]	[L1: 43.0524]	9.1+12.0s
[3200/15800]	[L1: 31.2550]	4.3+0.4s
[4800/15800]	[L1: 26.0271]	4.3+0.5s
[6400/15800]	[L1: 22.9094]	4.3+0.5s
[8000/15800]	[L1: 20.7033]	4.2+0.5s
[9600/15800]	[L1: 19.0651]	4.2+0.5s
[11200/15800]	[L1: 17.7759]	4.3+0.5s
[12800/15800]	[L1: 16.7843]	4.3+0.5s
…
